data/p1ch6/birds_vs_airplanes.pt (torch_old, 73643 bytes, 8 tensors)

conv1.weight f4 [16, 3, 3, 3]
0.27109173 0.18718919 -0.03479083 0.12032773 -0.012608229 0.30954453 0.12282572 0.06070875
0.21314214 -0.19358881 0.046323508 -0.13908096 -0.04535494 0.11077423 -0.06490311 -0.13041759
-0.21650426 -0.21085899 -0.08299055 -0.27744097 0.01905251 -0.22255656 0.04115385 -0.13123292
0.08008405 0.02754227 -0.057592012 -0.28855976 0.18770501 0.15294547 -0.23059212 0.1532432
-0.13019094 0.118252315 -0.045947365 -0.14190646 0.055320147 0.039911542 0.10726659 0.10110787
-0.017899165 -0.044409916 0.051435407 0.29015172 0.119481586 -0.14587085 0.055164423 -0.0060981675
-0.04512871 0.21238552 -0.041263614 0.17724435 0.17421426 -0.0586189 -0.029835619 0.091050155
-0.21842538 -0.18317945 -0.04975718 -0.36955333 -0.2841438 -0.29041353 -0.22952938 0.12260697
0.26160094 -0.018485885 0.008231901 0.1483603 0.004145987 0.0436948 0.11055252 -0.13731056
-0.072331704 -0.026948266 0.16346006 0.15939991 0.0756429 0.222172 0.060453687 0.3312547
0.16374159 0.09079808 -0.008466183 0.1337081 -0.15009342 0.15792622 -0.018351959 -0.090312764
-0.264134 -0.031761974 -0.29206342 0.10028029 -0.21862803 0.15655582 -0.25233936 0.005981227
-0.025727088 -0.19465488 -0.11207243 0.18816185 0.006937495 0.2295827 0.307127 0.012394072
0.24310045 0.057251565 0.31997085 0.22810367 -0.24659938 0.20599793 -0.24082114 0.06296748
0.32885 0.23793948 0.17635976 -0.03457674 -0.025429301 -0.31900465 -0.19316725 -0.23879957
0.15366352 0.27497035 -0.04900361 0.100376815 0.07013684 0.17374654 0.08361774 -0.02049636
-0.010430247 -0.12696145 -0.12325942 0.08183026 -0.0991442 -0.016111957 -0.09014975 0.016068801
0.06578595 0.25731906 -0.32819402 -0.1062659 -0.098669805 -0.23720051 -0.06566114 0.02448942
0.310547 0.15680996 0.18363734 0.11882194 0.031263266 -0.103752755 -0.06472559 0.012530592
-0.12056382 0.1442253 0.0049505066 0.07675826 -0.20823176 -0.20869552 -0.20084529 0.19760756
0.1486649 -0.031830635 0.112513535 -0.2827366 -0.25880682 0.2743871 0.10054098 -0.13214378
0.097486086 0.038012553 -0.19382322 0.17376673 0.059742764 -0.35273507 0.02128116 0.070842385
-0.10760881 0.045479696 0.14451568 0.0279225 -0.016308831 -0.141595 -0.120056026 0.045376666
0.29954696 -0.16873199 -0.103509136 0.14542706 0.14617291 -0.118812084 0.21036711 -0.26356098
0.26403892 -0.059291705 -0.17140992 0.014563513 -0.1531465 0.02652237 -0.04512774 0.2044696
0.03484744 -0.08061945 -0.19562525 -0.09703658 -0.12105003 -0.08469334 0.0071842317 0.16672203
0.08805222 0.09551104 0.30584392 0.21885972 -0.1741414 0.12968357 0.017628644 0.030640522
0.017006539 0.11728977 -0.2621725 -0.1959276 0.10714066 0.20869559 -0.029349815 -0.14985424
0.12250112 0.10269684 0.26210734 -0.053351987 -0.263747 0.17635506 0.023431445 0.13082822
-0.105690226 -0.030559009 -0.10065052 0.29785484 0.02915732 -0.32613668 -0.06640302 0.0680952
0.10134948 -0.14742702 -0.030281967 -0.0044312463 -0.004049628 0.1953796 -0.00413072 0.12160456
0.08378214 0.01704616 0.28560635 -0.008667616 0.019818 0.12791738 0.067354284 -0.24354643
00000000: 89cc 8a3e 86ae 3f3e d480 0ebd 636e f63d
00000010: bf92 4ebc 9f7c 9e3e 0d8c fb3d bda9 783d
00000020: ef41 5a3e 253c 46be b8bd 3d3d 3d6b 0ebe
00000030: 1ac6 39bd 99dd e23d eceb 84bd 308c 05be
00000040: 4bb3 5dbe 6beb 57be f3f6 a9bd be0c 8ebe
00000050: 0214 9c3c dee5 63be f090 283d ec61 06be
00000060: 1b03 a43d 54a0 e13c 9ae5 6bbd 1bbe 93be
00000070: be35 403e bd9d 1c3e 5720 6cbe c9eb 1c3e
00000080: c650 05be 452e f23d 4e33 3cbd ed4f 11be
00000090: 6197 623d 497a 233d 96ae db3d a511 cf3d
000000a0: 45a1 92bc 2ce7 35bd efad 523d c48e 943e
000000b0: c3b2 f43d 2b5f 15be 17f4 613d 23d3 c7bb
000000c0: e2d8 38bd 977b 593e 0904 29bd 8b7f 353e
000000d0: 3965 323e 5f1a 70bd d469 f4bc 8178 ba3d
000000e0: e7aa 5fbe 6593 3bbe 2fce 4bbd 1836 bdbe
000000f0: 4c7b 91be 15b1 94be c009 6bbe 5d19 fb3d
00000100: 8ff0 853e b66f 97bc 18df 063c c3eb 173e
00000110: 0fdb 873b 52f9 323d 5c69 e23d 249b 0cbe
00000120: a522 94bd 9cc2 dcbc 1362 273e bb39 233e
00000130: aaea 9a3d 0f81 633e 499e 773d 379a a93e
00000140: e0ab 273e 58f4 b93d bfb5 0abc c7ea 083e
00000150: 17b2 19be 69b7 213e d956 96bc e6f5 b8bd
00000160: 923c 87be d818 02bd 5689 95be c15f cd3d
00000170: 07e0 5fbe 2b50 203e a032 81be 2bfe c33b
00000180: 9dc1 d2bc 9c53 47be 3b86 e5bd 80ad 403e
00000190: ed53 e33b ba17 6b3e c03f 9d3e 8110 4b3c
000001a0: 53ef 783e 9e80 6a3d 38d3 a33e 0294 693e
000001b0: 8c84 7cbe 1ff1 523e d199 76be 18f5 803d
000001c0: 075f a83e 68a6 733e a797 343e 57a0 0dbd
000001d0: 1c51 d0bc 9454 a3be a3cd 45be e087 74be
000001e0: f859 1d3e eac8 8c3e 02b8 48bd 5c92 cd3d
000001f0: e7a3 8f3d 9dea 313e c73f ab3d fbe7 a7bc
00000200: a0e3 2abc 2f02 02be 6f6f fcbd a096 a73d
00000210: 1d0c cbbd 39fd 83bc 6fa0 b8bd b8a2 833c
00000220: c9ba 863d 53bf 833e 0c09 a8be f0a1 d9bd
00000230: 6513 cabd b1e4 72be 5979 86bd 099e c83c
00000240: 0400 9f3e ca92 203e 6d0b 3c3e eb58 f33d
00000250: e90d 003d 537c d4bd da8e 84bd 1d4d 4d3c
00000260: 2aea f6bd ccaf 133e dc37 a23b 6f33 9d3d
00000270: b53a 55be 47b4 55be 63aa 4dbe a359 4a3e
00000280: 9d3b 183e d760 02bd 7f6d e63d dac2 90be
00000290: 5482 84be 777c 8c3e 6ee8 cd3d b350 07be
000002a0: c9a6 c73d 0db3 1b3d 9879 46be e8ef 313e
000002b0: d4b4 743d b199 b4be d455 ae3c d015 913d
000002c0: 0262 dcbd eb48 3a3d ebfb 133e babd e43c
000002d0: 199a 85bc 48fe 10be efdf f5bd e2dc 393d
000002e0: 385e 993e 14c8 2cbe 99fc d3bd d5ea 143e
000002f0: 5aae 153e c053 f3bd 7a6a 573e 77f1 86be
00000300: 1c30 873e dcdb 72bd 1586 2fbe cd9b 6e3c
00000310: 70d2 1cbe 7145 d93c ddd7 38bd 7b60 513e
00000320: 30bc 0e3d cf1b a5bd fc51 48be 1dbb c6bd
00000330: 14e9 f7bd b473 adbd b469 eb3b 2eb9 2a3e
00000340: b954 b43d 4b9b c33d 9397 9c3e c31c 603e
00000350: 2052 32be c5cb 043e f269 903c d501 fb3c
00000360: 4c51 8b3c 9e35 f03d 793b 86be 3fa1 48be
00000370: 906c db3d 4cb4 553e 066f f0bc 6473 19be
00000380: dee1 fa3d b952 d23d ef32 863e 9d87 5abd
00000390: d909 87be 6c96 343e 4df3 bf3c d5f7 053e
000003a0: 1e74 d8bd e356 fabc dc21 cebd 6e80 983e
000003b0: 55db ee3c 63fb a6be 4efe 87bd 7f75 8b3d
000003c0: 5190 cf3d 1cf7 16be e311 f8bc fd33 91bb
000003d0: beb2 84bb 9711 483e fe5a 87bb d00b f93d
000003e0: f895 ab3d 63a4 8b3c ff3a 923e 9e02 0ebc
000003f0: 5c59 a23c c6fc 023e 0bf1 893d 3c64 79be

conv1.bias f4 [16]
-0.01919885 -0.12295483 -0.1339176 -0.1764462 -0.25418845 -0.37971717 -0.2629119 0.047786504
-0.21932077 -0.45641527 0.093739994 -0.0831974 -0.10927988 0.25230917 -0.13171183 -0.28838775
00000000: e846 9dbc becf fbbd b221 09be 50ae 34be
00000010: fd24 82be 4a6a c2be 639c 86be c8bb 433d
00000020: a095 60be 43af e9be c1fa bf3d 6663 aabd
00000030: 21ce dfbd ab2e 813e 77df 06be 8fa7 93be

conv2.weight f4 [8, 16, 3, 3]
-0.06503161 -0.08494032 -0.09465526 -0.11050838 -0.08626578 -0.038408883 0.043065965 -0.04426865
-0.011868854 0.11864736 -0.0660323 -0.13472041 -0.11752662 -0.11251556 -0.2046026 0.063429624
0.0067391274 -0.044793714 -0.06988905 -0.008512857 -0.12634057 0.18539222 -0.03282243 -0.0999248
0.038247887 0.093352996 0.03694869 0.021041341 -0.02841966 0.036190156 0.13062936 0.038567502
0.10199256 -0.07549553 0.040615827 -0.08803014 -0.008894411 -0.047912665 -0.08686823 -0.15843299
0.087800466 -0.0014816243 -0.17581384 0.15344328 0.023791548 0.0030242475 -0.06757125 0.06771359
0.016902968 -0.12825778 0.049761422 0.041085023 0.090982765 0.0049542855 0.17087644 0.11645069
-0.09434179 -0.085723564 0.23940441 0.19681917 -0.09521984 0.006857081 0.29562256 0.08186856
-0.0350574 -0.09980292 -0.04109005 0.002780879 -0.051853795 -0.085863926 0.014601747 0.025471123
0.034478527 0.067561574 0.036629338 0.084593475 0.14149325 -0.0042910464 0.14354952 0.21834931
0.00487677 0.013378165 0.070715204 0.018095883 -0.085674085 -0.11382143 0.023497816 0.011012254
0.04949892 -0.04766495 0.062845856 -0.07054592 -0.12294698 0.06290482 0.06983342 -0.1421119
-0.10834122 -0.014248785 -0.0020237693 0.01025154 -0.03900343 -0.09954106 -0.07251493 -0.0561426
0.09001544 -0.09871906 -0.017339738 -0.009076133 -0.25533685 -0.044006817 -0.07394806 -0.089384556
-0.027132891 0.014530052 0.10201088 -0.10735015 -0.15916903 -0.09482179 -0.038019314 0.073669
-0.105021946 -0.080758914 0.014253112 0.018389242 -0.17553782 0.018699747 0.047211442 0.11622131
-0.057307582 -0.06341565 -0.009991542 0.042091575 -0.11657045 -0.038796384 0.11030314 -0.061258562
0.086785525 0.060103275 -0.0843576 0.102128506 0.12928154 0.062171645 -0.022149798 0.13128431
0.17523986 0.11469719 0.073229596 0.11557373 0.15375674 0.021082185 0.09641139 0.15434757
0.109176666 -0.007015045 -0.06356838 -0.15867727 -0.0014803918 0.045978256 -0.103132926 0.050824907
-0.06721225 -0.08418945 -0.1076553 -0.12904963 0.038984414 -0.119838305 -0.11147553 -0.0283102
0.029515043 -0.05203577 0.09566541 -0.03539191 -0.0022100916 0.09888596 0.05818738 0.07725176
-0.024822973 0.024410648 0.10859518 0.062448375 0.039066 0.078622274 -0.12644354 0.011493294
-0.0029215734 -0.01938526 -0.07478205 0.053162795 0.08469188 -0.007941259 -0.1312077 -0.013983371
0.042093467 -0.13482872 -0.007516168 0.023035793 0.020735303 -0.06699 -0.039341826 0.055836834
-0.04195905 0.013777714 0.0023361717 -0.021202186 0.00024639448 -0.057703547 -0.009321307 -0.026493348
-0.07619892 -0.023633696 0.027601626 -0.061911162 -0.096750535 -0.10284645 -0.017996706 -0.019739486
-0.08576587 0.00903637 -0.0026245525 -0.047889072 -0.053898394 0.09269711 0.06263344 0.09780369
0.06924049 0.13432601 0.04122065 -0.010316657 0.13624853 0.07138465 -0.03216687 -0.039376445
-0.010861993 -0.011022633 0.08529467 0.248656 -0.0081768 0.15009122 0.109963745 0.21035032
0.06370653 0.18371981 0.09222165 -0.07526767 -0.18792187 -0.103034645 0.04255333 -0.124070175
-0.11618838 -0.04178501 -0.09167385 0.005302333 0.08336175 -0.048939947 0.021846531 0.022418743
00000000: 4b2f 85bd 31f5 adbd 9eda c1bd 3852 e2bd
00000010: 1dac b0bd a252 1dbd f065 303d 0b53 35bd
00000020: 9575 42bc 63fd f23d f13b 87bd 26f4 09be
00000030: ccb1 f0bd 8f6e e6bd 5883 51be 64e7 813d
00000040: e6d3 dc3b 9d79 37bd fe21 8fbd 8379 0bbc
00000050: 6c5f 01be 75d7 3d3e d070 06bd 60a5 ccbd
00000060: d1a9 1c3d db2f bf3d 8257 173d e45e ac3c
00000070: 59d0 e8bc 213c 143d b4c3 053e f5f8 1d3d
00000080: 7ae1 d03d 679d 9abd c85c 263d 2549 b4bd
00000090: ddb9 11bc 1240 44bd f8e7 b1bd 423c 22be
000000a0: bbd0 b33d 1033 c2ba 8b08 34be 3c20 1d3e
000000b0: 7ee6 c23c 7432 463b cc62 8abd 6cad 8a3d
000000c0: 1878 8a3c 0256 03be a2d2 4b3d c548 283d
000000d0: 2c55 ba3d 8f57 a23b 3cfa 2e3e b37d ee3d
000000e0: 4536 c1bd d68f afbd 6e26 753e f78a 493e
000000f0: 9f02 c3bd 5db1 e03b d75b 973e b4aa a73d
00000100: 5998 0fbd 7965 ccbd 0a4e 28bd 683f 363b
00000110: a564 54bd 6dd9 afbd 2a3c 6f3c d1a8 d03c
00000120: 5b39 0d3d b95d 8a3d a508 163d 583f ad3d
00000130: 9be3 103e e89b 8cbb a5fe 123e f696 5f3e
00000140: 50cd 9f3b 1730 5b3c 22d3 903d d13d 943c
00000150: e575 afbd 361b e9bd 7e7e c03c be6c 343c
00000160: 61bf 4a3d 533c 43bd 54b5 803d 617a 90bd
00000170: a0cb fbbd 3ed4 803d d304 8f3d c885 11be
00000180: 00e2 ddbd bc73 69bc 37a1 04bb 13f6 273c
00000190: 10c2 1fbd 2fdc cbbd b582 94bd c8f5 65bd
000001a0: 045a b83d 382d cabd 110c 8ebc 10b4 14bc
000001b0: 83bb 82be 7e40 34bd 1572 97bd 400f b7bd
000001c0: cc45 debc 750f 6e3c 15eb d03d 65da dbbd
000001d0: 35fd 22be ed31 c2bd 24ba 1bbd c6df 963d
000001e0: bf15 d7bd ee64 a5bd e285 693c 09a5 963c
000001f0: 30c0 33be 3630 993c c960 413d 7005 ee3d
00000200: 5bbb 6abd 10e0 81bd 91b3 23bc 3768 2c3d
00000210: 7dbc eebd f5e8 1ebd 9de6 e13d 42ea 7abd
00000220: 9cbc b13d da2e 763d adc3 acbd c028 d13d
00000230: 6162 043e b2a7 7e3d 7e73 b5bc 656f 063e
00000240: 1472 333e 5ce6 ea3d 66f9 953d ebb1 ec3d
00000250: 6872 1d3e 8cb4 ac3c 5673 c53d 4a0d 1e3e
00000260: 0498 df3d 76de e5bb 2430 82bd 4b7c 22be
00000270: b509 c2ba b253 3c3d 5b37 d3bd c72d 503d
00000280: 93a6 89bd 856b acbd 627a dcbd 9625 04be
00000290: 1fae 1f3d c96d f5bd 484d e4bd cbea e7bc
000002a0: 88c9 f13c 7623 55bd 3aec c33d 1bf7 10bd
000002b0: 2fd7 10bb b984 ca3d e455 6e3d 2c36 9e3d
000002c0: 8c59 cbbc d7f8 c73c 2667 de3d dec9 7f3d
000002d0: ac03 203d b704 a13d 6a7a 01be 5e4e 3c3c
000002e0: de77 3fbb d6cd 9ebc 5527 99bd 3bc1 593d
000002f0: f072 ad3d 0e1c 02bc 505b 06be 821a 65bc
00000300: 336a 2c3d 8a10 0abe 304a f6bb 8fb5 bc3c
00000310: 15dd a93c 0e32 89bd e524 21bd 2ab5 643d
00000320: 41dd 2bbd ecbb 613c 751a 193b 35b0 adbc
00000330: 822e 8139 8e5a 6cbd 65b8 18bc 9408 d9bc
00000340: 2e0e 9cbd 749b c1bc ce1c e23c 8f96 7dbd
00000350: 2525 c6bd 29a1 d2bd d46d 93bc b4b4 a1bc
00000360: 04a6 afbd 480d 143c af00 2cbb 5527 44bd
00000370: 90c4 5cbd fbd7 bd3d f645 803d 4d4d c83d
00000380: f5cd 8d3d c28c 093e fcd6 283d 3207 29bc
00000390: bc84 0b3e 1e32 923d 68c1 03bd 3249 21bd
000003a0: 80f6 31bc 4698 34bc f9ae ae3d ae9f 7e3e
000003b0: fcf7 05bc 83b1 193e ac34 e13d 1366 573e
000003c0: 9278 823d 0c21 3c3e b4de bc3d f025 9abd
000003d0: 976e 40be d403 d3bd 674c 2e3d 8118 febd
000003e0: 2cf4 edbd c226 2bbd 80bf bbbd 31bf ad3b
000003f0: 91b9 aa3d 4175 48bd 7ff7 b23c 83a7 b73c

conv2.bias f4 [8]
-0.2322539 -0.074937575 0.037437532 -0.037346948 -0.2119354 -0.212593 -0.18210231 -0.07973876
00000000: f7d3 6dbe df78 99bd 1958 193d 1df9 18bd
00000010: 9805 59be fbb1 59be 0779 3abe 134e a3bd

fc1.weight f4 [32, 512]
-0.030053148 0.03434777 -0.045896605 0.032786716 0.00096964726 -0.008139141 -0.036001574 0.022074213
-0.03195629 0.025527643 -0.004589844 -0.006574481 0.0014360617 -0.012491006 -0.061488956 0.009633731
0.020175373 0.021394517 0.015480732 -0.012415918 -0.01662795 -0.07091538 -0.039250825 -0.051873993
0.010533745 -0.00019579842 -0.022035452 -0.02271459 -0.030946685 -0.083495334 -0.061087467 -0.047016468
-0.016116647 -0.00023774203 -0.10408516 -0.07450515 -0.023536475 -0.03990541 -0.07696617 0.052384295
-0.022606917 -0.029522615 -0.08208739 -0.015178647 0.0015258588 0.022318622 0.04520764 -0.005245282
0.019294316 0.021861559 0.0020256143 -0.043677155 0.038072348 0.05064507 0.07251824 0.032707967
0.05290832 0.0064940136 -0.01602159 0.04830425 -0.014308652 0.012695277 0.030163947 -0.05176349
0.013146554 -0.002216068 0.027492708 0.021820959 -0.03382809 -0.050202154 -0.006224968 0.022610262
0.016304273 0.033945214 0.02240455 0.018448252 0.017870897 -0.02246289 0.043025732 0.04282268
0.036039438 0.020679954 0.0028384277 -0.07622969 -0.054923758 -0.051133607 0.043778673 -0.0009330716
-0.020096624 0.08308541 -0.03933285 -0.027333707 -0.07425163 -0.07387139 -0.018716725 0.027635906
-0.09989314 0.012630687 -0.04696248 -0.104413696 -0.042051334 0.012885964 -0.0061055855 -0.036425248
0.053826395 0.07287122 -0.036046684 -0.018451922 0.011022133 -0.055485148 -0.050669953 -0.03012312
0.060208738 -0.027154796 0.0080676405 -0.03113262 -0.03304315 0.06606131 0.045915876 0.06543925
0.0326935 0.0014327281 -0.022152547 -0.066435 -0.0070868535 -0.03154465 -0.02227945 -0.0035967098
-0.008028281 -0.107515275 -0.05603064 0.011964268 0.04184392 0.03951404 -0.065493226 -0.073623225
0.031257916 0.016267804 0.0015001602 0.030594163 0.034611873 0.0099291885 -0.04163027 -0.009670472
0.009479335 0.045408495 0.088189684 0.059883017 0.03005496 0.03549696 0.021523934 0.036622617
0.0012776789 0.091498815 0.06808124 0.014446511 0.008706476 0.07204108 -0.008053715 -0.030810907
0.08703174 0.11344582 0.0012675769 0.007496667 0.042359132 0.042784557 0.08234247 -0.05098124
-0.002926702 0.05051162 0.026116423 0.0162317 0.020304142 0.11654 0.079660594 -0.04683248
0.018816931 0.060041763 0.104592316 0.03997199 0.07269405 0.053964317 0.086936064 -0.036402754
0.06371929 0.0027660439 0.08348479 0.046822295 -0.05253629 0.021024272 -0.053610012 -0.0114622945
0.018569317 -0.05763753 -0.012563433 0.025297321 0.04424504 -0.047688805 -0.025254738 -0.005679778
0.031751614 -0.019698141 -0.01052025 -0.027888274 0.041773703 -0.0029148944 -0.018966915 0.06145379
-0.006336823 -0.024211379 -0.030619418 0.0073005315 -0.033552706 -0.053679656 0.034302264 -0.011450411
-0.026669784 0.022081815 -0.020832825 -0.06985292 0.07110595 0.028661834 0.09396406 0.043934714
-0.010126724 0.03425904 0.034607526 0.009797866 -0.02912042 0.013171442 0.075282596 -0.053080905
-0.015272794 -0.037037823 -0.047471467 -0.041165408 -0.012595227 0.04464638 0.03961716 0.042805765
0.008075916 -0.03361877 -0.011600805 -0.0404419 -0.011384587 0.04146269 0.04913171 0.047906347
0.036966812 -0.0130624585 -0.018851286 0.024054639 -0.026958944 0.030075202 -0.04695607 0.025244717
00000000: 0532 f6bc 3fb0 0c3d 14fe 3bbd 5d4b 063d
00000010: ed2f 7e3a 085a 05bc 6376 13bd fbd4 b43c
00000020: 99e4 02bd 591f d13c 6766 96bb be6e d7bb
00000030: 3c3a bc3a 14a7 4cbc d8db 7bbd ccd6 1d3c
00000040: d346 a53c 8e43 af3c e5a2 7d3c 226c 4bbc
00000050: 5737 88bc 153c 91bd 79c5 20bd d379 54bd
00000060: bb95 2c3c 3d4f 4db9 b183 b4bc f313 babc
00000070: e783 fdbc 9aff aabd da36 7abd 5794 40bd
00000080: 0f07 84bc 644a 79b9 9a2a d5bd 2896 98bd
00000090: 91cf c0bc db73 23bd 70a0 9dbd ea90 563d
000000a0: 2432 b9bc 69d9 f1bc 6f1d a8bd dcaf 78bc
000000b0: 53ff c73a 8bd5 b63c a52b 393d 9de0 abbb
000000c0: 1d0f 9e3c 0317 b33c 2bc0 043b d1e6 32bd
000000d0: c0f1 1b3d 3471 4f3d 7184 943d caf8 053d
000000e0: 65b6 583d bccb d43b b63f 83bc adda 453d
000000f0: d66e 6abc daff 4f3c 621a f73c f405 54bd
00000100: a564 573c 743b 11bb 6338 e13c dec1 b23c
00000110: 538f 0abd c6a0 4dbd d1fa cbbb 2839 b93c
00000120: 8a90 853c 230a 0b3d bf89 b73c ca20 973c
00000130: fd65 923c 1804 b8bc c03b 303d d666 2f3d
00000140: 179e 133d 0269 a93c ea04 3a3b 501e 9cbd
00000150: bcf7 60bd 7971 51bd 4451 333d 6099 74ba
00000160: ada1 a4bc af28 aa3d 7c1b 21bd f0ea dfbc
00000170: 3d11 98bd e249 97bd d153 99bc b264 e23c
00000180: c694 ccbd f1f0 4e3c bb5b 40bd d9d6 d5bd
00000190: 053e 2cbd a61f 533c 5d11 c8bb a432 15bd
000001a0: 1179 5c3d 823d 953d b0a5 13bd 7c28 97bc
000001b0: 2d96 343c 6544 63bd 4c8b 4fbd c3c4 f6bc
000001c0: 709d 763d bc73 debc 232e 043c d609 ffbc
000001d0: 4158 07bd 274b 873d 4912 3c3d 0305 863d
000001e0: 9fe9 053d 61ca bb3a 4279 b5bc 130f 88bd
000001f0: d638 e8bb f734 01bd 6583 b6bc c7b6 6bbb
00000200: 0d89 03bc f830 dcbd 6280 65bd c705 443c
00000210: 8864 2b3d 79d9 213d 5021 86bd c6c7 96bd
00000220: 4d08 003d 0f44 853c 06a1 c43a 9ca0 fa3c
00000230: 2ec5 0d3d 09ae 223c 8184 2abd e670 1ebc
00000240: 364f 1b3c 42fe 393d cb9c b43d e547 753d
00000250: d235 f63c 4365 113d f652 b03c 9901 163d
00000260: ca77 a73a bb63 bb3d 2d6e 8b3d 0fb1 6c3c
00000270: 9ba5 0e3c 468a 933d bbf3 03bc 2867 fcbc
00000280: b23d b23d 4856 e83d d324 a63a 9aa6 f53b
00000290: c580 2d3d dc3e 2f3d 2ba3 a83d b4d1 50bd
000002a0: e9cd 3fbb 46e5 4e3d 1cf2 d53c 58f8 843c
000002b0: df54 a63c 86ac ee3d 1825 a33d 6ad3 3fbd
000002c0: f725 9a3c 5aee 753d 7f34 d63d abb9 233d
000002d0: 9ee0 943d b009 5d3d 890b b23d 0e1b 15bd
000002e0: 427f 823d 8446 353b 13fa aa3d bcc8 3f3d
000002f0: 4b30 57bd 183b ac3c 2c96 5bbd 59cc 3bbc
00000300: ae1e 983c 5515 6cbd dbd6 4dbc 543c cf3c
00000310: 493a 353d 5655 43bd 06e3 cebc 6e1d babb
00000320: fb0d 023d ff5d a1bc 205d 2cbc f375 e4bc
00000330: e71a 2b3d d007 3fbb 8160 9bbc f8b6 7b3d
00000340: 20a5 cfbb f156 c6bc 93d5 fabc 4c39 ef3b
00000350: 906e 09bd 33df 5bbd 8880 0c3d 819a 3bbc
00000360: 977a dabc ece4 b43c 9aa9 aabc 0c0f 8fbd
00000370: ff9f 913d 39cc ea3c 3b70 c03d e3f4 333d
00000380: 8fea 25bc 3553 0c3d 9fc0 0d3d 3b87 203c
00000390: f28d eebc 08cd 573c c32d 9a3d 5d6b 59bd
000003a0: be3a 7abc f9b4 17bd 7171 42bd 0f9d 28bd
000003b0: 365c 4ebc 1fdf 363d 9a45 223d 1955 2f3d
000003c0: d950 043c d6b3 09bd 4e11 3ebc 68a6 25bd
000003d0: 6b86 3abc c8d4 293d 553e 493d 7239 443d
000003e0: 836a 173d ec03 56bc 036e 9abc 3c0e c53c
000003f0: 01d9 dcbc 4560 f63c 0255 40bd 02ce ce3c

fc1.bias f4 [32]
0.0421232 -0.0041092923 -0.0921299 -0.020658612 -0.0057706633 -0.033070903 0.0041171876 -0.054374028
0.0037647886 0.0079301465 0.01257787 0.018501166 -0.023356294 0.06638411 -0.09986604 -0.046293125
0.0046486156 0.00050501816 0.045134377 -0.009047148 -0.09656796 0.085832715 -0.019334482 -0.035289817
-0.069141164 -0.049134754 0.0127485655 -0.028103609 0.00054610125 0.008851844 -0.03462732 0.030609477
00000000: 6089 2c3d 3ea7 86bb 9aae bcbd 403c a9bc
00000010: d517 bdbb 5b75 07bd 79e9 863b 4db7 5ebd
00000020: acba 763b 72ed 013c 6913 4e3c c28f 973c
00000030: b355 bfbc 64f4 873d 9186 ccbd dc9d 3dbd
00000040: 6a53 983b 3263 043a d3de 383d 7d3a 14bc
00000050: 6cc5 c5bd 10c9 af3d 5963 9ebc 0e8c 10bd
00000060: e299 8dbd 8641 49bd 5cdf 503c 8a39 e6bc
00000070: 3c28 0f3a 5307 113c 60d5 0dbd bac0 fa3c

fc2.weight f4 [2, 32]
0.62351215 0.07648892 -0.522825 -0.13185607 0.12585473 -0.2570156 0.21499622 -0.15936038
-0.053181767 0.5061729 0.031574704 0.43291825 -0.41318643 0.094078496 -0.60413295 -0.37654623
0.23518807 -0.23441187 0.095324524 0.68127286 -0.4672812 0.51135236 0.1538268 -0.099278726
-0.47799093 -0.33776242 0.1134431 -0.45607442 0.11396222 0.024274636 -0.22035263 0.01773274
-0.61859643 0.17630604 0.61953974 0.20207807 -0.07091004 0.30814674 0.09973637 0.37186947
0.09579233 -0.41467825 -0.19998477 -0.44176307 0.3475756 -0.1918187 0.6338849 0.2018442
-0.33509803 0.034541648 -0.19696024 -0.6536876 0.4757119 -0.53949183 0.15988357 0.058996003
0.358765 0.36094183 -0.2566517 0.4867857 0.0019216107 -0.020624707 0.009152388 -0.03943214
00000000: 7e9e 1f3f 39a6 9c3d dcd7 05bf 4705 07be
00000010: 10e0 003e 8c97 83be f827 5c3e 5e2f 23be
00000020: 20d5 59bd 8c94 013f 7a54 013d 76a7 dd3e
00000030: 2c8d d3be 3aac c03d 75a8 1abf abca c0be
00000040: 24d5 703e aa09 70be 8139 c33d e667 2e3f
00000050: 7b3f efbe fde7 023f c684 1d3e a552 cbbd
00000060: 3abb f4be 32ef acbe db54 e83d 9682 e9be
00000070: 0665 e93d 9adb c63c 1fa4 61be 4044 913c
00000080: 565c 1ebf 9289 343e 289a 1e3f 8eed 4e3e
00000090: 4839 91bd 69c5 9d3e 9542 cc3d ad65 be3e
000000a0: c52e c43d b550 d4be cfc8 4cbe c52e e2be
000000b0: 6ef5 b13e 1f6c 44be 4846 223f 3fb0 4e3e
000000c0: f891 abbe 8b7b 0d3d f2af 49be 1258 27bf
000000d0: 8390 f33e 231c 0abf 85b8 233e cba5 713d
000000e0: 0cb0 b73e 5ecd b83e da67 83be fa3b f93e
000000f0: 8ede fb3a 25f5 a8bc e6f3 153c 9883 21bd

fc2.bias f4 [2]
-0.041090254 -0.22765516
00000000: 414e 28bd 6f1e 69be
