data/p1ch2/mnist/mnist.pth (torch_old, 88668 bytes, 8 tensors)

conv1.weight f4 [10, 1, 5, 5]
-0.067879945 0.30515605 0.17032012 0.12388479 0.24495631 0.30083036 0.113448724 0.039515603
-0.19319896 -0.16589151 0.120920904 0.17175053 0.01896942 -0.06608729 0.0076065864 0.3161084
-0.018558048 -0.13473098 -0.15835221 -0.23499124 0.1748539 0.066548295 0.10114459 -0.05173251
-0.14910738 -0.13450955 0.11251353 -0.21743485 -0.29727498 -0.14693262 0.08236769 0.111097135
0.23046304 -0.027044682 0.2551805 0.041437116 0.20714429 0.49932924 0.33526877 0.24459127
-0.24282517 0.03858614 0.07021958 0.105530985 0.065943286 -0.3484607 -0.41841206 -0.48825753
-0.3620348 -0.24124148 0.12795937 -0.18207432 -0.2816321 -0.38904673 -0.28034174 0.20161898
0.028891463 -0.014526176 -0.32120815 -0.40507877 0.106693916 0.39736295 0.30038154 0.2638582
-0.07678951 0.1279193 0.48387152 0.512071 0.17189184 0.15404633 -0.2908409 -0.26602066
0.060302816 0.33280703 0.2538067 -0.23730366 0.038446557 -0.015122835 0.21773914 -0.035638012
-0.26950666 -0.23147911 0.022517733 0.3875769 0.1551557 -0.024856634 0.32278258 0.4238867
0.22519429 0.10851933 0.19004788 0.30560735 0.12290741 -0.067077614 -0.019120233 0.06687293
-0.26766786 -0.34985682 -0.26801214 -0.40394676 0.12798983 -0.073949665 -0.12650901 -0.036217913
0.16737622 -0.0557704 -0.14089881 -0.19444579 -0.16650805 -0.20043936 -0.07944124 -0.12573421
-0.2420447 -0.24124207 -0.043237727 -0.07476021 -0.11659454 0.14407215 -0.09684278 -0.19076596
-0.110526584 -0.18331426 0.17586769 0.17725265 0.057700638 0.07058011 0.04336775 0.26642084
0.3761058 0.19119623 -0.05430272 -0.17244358 -0.065306075 0.12824364 0.25040334 -0.06620094
-0.15542647 -0.07349795 0.2635061 0.29737046 -0.342875 -0.21391891 -0.18737298 0.23100097
0.35301337 -0.24853632 -0.07025249 -0.07630312 0.10407136 0.23693661 -0.24109943 -0.3794894
-0.28539965 -0.3459368 -0.10756849 -0.37512967 -0.14449996 -0.16674149 0.21603549 0.2673875
-0.3531612 -0.13603781 0.054255016 0.24686356 0.20209686 -0.30824164 0.13341632 0.2789173
0.36485413 -0.031076755 -0.277438 -0.09933563 0.2858124 0.22797084 -0.050265305 -0.055293083
-0.13585676 0.03033914 -0.19283712 -0.11091116 -0.13830258 -0.3118683 -0.4639382 -0.03701746
-0.2233212 0.2210916 -0.104686126 -0.19658272 -0.17634685 -0.11293187 -0.049750913 0.42661455
0.2749602 0.038373224 -0.12071851 0.11096981 0.03990701 0.38121 0.35359553 0.32973436
-0.06283449 -0.24723977 -0.1933377 -0.21752411 0.1032321 0.09439915 -0.23854613 -0.15583642
0.12804593 0.3296167 0.1339976 0.073059104 0.22920783 0.35876077 0.2399651 0.060379233
0.008303784 0.28388998 0.22382975 0.17344111 0.16966514 0.12841943 0.004448717 0.10391622
0.1812707 -0.14078161 -0.18674718 -0.25364965 0.20567177 -0.022484656 -0.28505522 -0.31110087
0.069519565 0.085027024 0.2704803 -0.01966696 -0.28286016 -0.21049525 0.06787879 0.29328907
0.0068407 -0.32322076 0.059947096 0.024063919 0.35390356 -0.119839594 0.07169759 -0.15079044
0.16066733 -0.029465834
00000000: a404 8bbd 6a3d 9c3e 6668 2e3e 4fb7 fd3d
00000010: d4d5 7a3e 7006 9a3e ce57 e83d 1ddb 213d
00000020: f3d5 45be 77df 29be 61a5 f73d 5fdf 2f3e
00000030: c265 9b3c c658 87bd ac40 f93b f6d8 a13e
00000040: 0c07 98bc ebf6 09be 1527 22be 8ba1 70be
00000050: e70c 333e 794a 883d e524 cf3d 78e5 53bd
00000060: 9baf 18be dfbc 09be 7e6d e63d 3ea7 5ebe
00000070: 6d34 98be 8175 16be 64b0 a83d e586 e33d
00000080: 81fe 6b3e cf8c ddbc 05a7 823e f7b9 293d
00000090: a21d 543e 15a8 ff3e 59a8 ab3e 2276 7a3e
000000a0: 29a7 78be 800c 1e3d 48cf 8f3d a120 d83d
000000b0: 460d 873d 7169 b2be 1b3a d6be e4fc f9be
000000c0: a05c b9be 0208 77be c807 033e b171 3abe
000000d0: 1532 90be 2231 c7be f488 8fbe 3575 4e3e
000000e0: caad ec3c 33ff 6dbc 6575 a4be 7c66 cfbe
000000f0: 5782 da3d 2873 cb3e 9ccb 993e 6c18 873e
00000100: d243 9dbd 47fd 023e 02be f73e 1617 033f
00000110: 6a04 303e 52be 1d3e 19e9 94be dc33 88be
00000120: 1600 773d af65 aa3e f4f2 813e bbff 72be
00000130: 237a 1d3d c4c5 77bc 02f7 5e3e 2af9 11bd
00000140: c7fc 89be dc08 6dbe 1c77 b83c 7b70 c63e
00000150: 23e1 1e3e 24a0 cbbc c243 a53e ad07 d93e
00000160: 5599 663e 623f de3d e99b 423e 9178 9c3e
00000170: e1b6 fb3d fd5f 89bd 09a2 9cbc adf4 883d
00000180: c30b 89be 6f20 b3be e338 89be 1cd2 cebe
00000190: c40f 033e ec72 97bd 948b 01be 3c59 14bd
000001a0: ac64 2b3e 816f 64bd c747 10be cc1c 47be
000001b0: 1681 2abe fa3f 4dbe 17b2 a2bd 78c0 00be
000001c0: 91da 77be 2908 77be 0b1a 31bd e21b 99bd
000001d0: 1ec9 eebd a687 133e 8255 c6bd 2758 43be
000001e0: c35b e2bd bcb6 3bbe a916 343e b881 353e
000001f0: 8157 6c3d 4e8c 903d 62a2 313d 5068 883e
00000200: f090 c03e f2c8 433e 876c 5ebd 0d95 30be
00000210: 31bf 85bd 4d52 033e de34 803e 5c94 87bd
00000220: 1e28 1fbe 1886 96bd 46ea 863e f140 983e
00000230: 508d afbe 8f0d 5bbe b4de 3fbe 858b 6c3e
00000240: 2bbe b43e 4e80 7ebe 8ae0 8fbd cf44 9cbd
00000250: 5d23 d53d 839f 723e c5e2 76be 6f4c c2be
00000260: e71f 92be a11e b1be de4c dcbd ff10 c0be
00000270: ccf7 13be 48be 2abe 6838 5d3e 04e7 883e
00000280: 8bd1 b4be 7f4d 0bbe 823a 5e3d cdc9 7c3e
00000290: 7bf2 4e3e d9d1 9dbe 4a9e 083e 40ce 8e3e
000002a0: 29ce ba3e ae94 febc 5b0c 8ebe 7b70 cbbd
000002b0: 0156 923e 3071 693e fee2 4dbd 007b 62bd
000002c0: 091e 0bbe ca89 f83c 1877 45be 6425 e3bd
000002d0: 319f 0dbe 34ad 9fbe 4f89 edbe 9f9f 17bd
000002e0: 50ae 64be d665 623e ae65 d6bd fb4c 49be
000002f0: 4594 34be d348 e7bd 9dc7 4bbd 396d da3e
00000300: 95c7 8c3e 3e2d 1d3d 443b f7bd 2444 e33d
00000310: 8875 233d f52d c33e 790a b53e f1d2 a83e
00000320: 5eaf 80bd 6c2c 7dbe 51fa 45be a4be 5ebe
00000330: 5a6b d33d 5754 c13d 7045 74be 9593 1fbe
00000340: 791e 033e 85c3 a83e ab36 093e 03a0 953d
00000350: 75b5 6a3e 7eaf b73e 69b9 753e 3750 773d
00000360: 980c 083c 075a 913e a033 653e 8c9a 313e
00000370: b3bc 2d3e 6280 033e 8bc6 913b 07d2 d43d
00000380: 079f 393e 0e29 10be a73a 3fbe 5ede 81be
00000390: 9f9b 523e be31 b8bc c2f2 91be 9d48 9fbe
000003a0: 4660 8e3d a622 ae3d 657c 8a3e 9b1c a1bc
000003b0: 0cd3 90be 118c 57be 0904 8b3d fc29 963e
000003c0: f327 e03b 317d a5be 168b 753d b221 c53c
000003d0: d932 b53e 766e f5bd 30d6 923d cf68 1abe
000003e0: fa85 243e 5562 f1bc

conv1.bias f4 [10]
-0.08669158 -0.07123263 -0.21767326 0.008673619 0.12655297 -0.24652423 -0.024431748 -0.1010703
-0.010090952 0.051700734
00000000: 5b8b b1bd 6ae2 91bd bde5 5ebe cb1b 0e3c
00000010: 1a97 013e d970 7cbe 1725 c8bc f2fd cebd
00000020: 8554 25bc 26c4 533d

conv2.weight f4 [20, 10, 5, 5]
-0.16049041 -0.045707744 0.024785751 -0.021080097 -0.034554806 -0.09070871 -0.021972349 -0.043294426
0.02346314 -0.063453704 -0.046465106 -0.03521669 -0.10546728 0.046939176 0.059973877 -0.06826225
-0.020972332 0.04590951 0.06572595 0.13042513 0.073129386 0.026520781 0.0038941405 0.045037195
0.096897416 0.006956768 0.02853356 -0.036051434 0.051824145 -0.034576084 0.03683709 0.05670177
-0.021672549 0.00061794 -0.07937346 -0.021970749 0.05731112 0.01525745 -0.06597543 -0.07422024
0.095940925 0.011312727 -0.04385449 -0.15484312 -0.15762536 0.07801463 0.019443925 -0.11306189
-0.08372468 -0.13064851 -0.07905185 -0.008724806 0.0128251035 0.029851515 0.028415903 0.036500823
0.019795015 0.029433433 0.049935114 -0.0075791813 0.11794243 0.08655305 0.04273089 -0.075230144
-0.035266552 0.071812205 0.0362493 -0.11605061 -0.13743319 -0.08209222 0.073354356 -0.09882576
-0.13208753 -0.08871834 -0.007328653 -0.046845216 -0.0015294794 0.009093725 -0.10841955 -0.07052916
-0.04873965 -0.014381442 -0.0369734 -0.0953488 -0.038776115 0.05687455 0.0010107538 0.09435965
0.017976996 0.09621266 0.06742088 0.098764285 0.20681275 0.1402595 0.062522784 0.12368418
0.15580612 0.06388595 -0.09056566 -0.0732071 -0.016209254 0.0061708055 -0.032807354 -0.020129386
-0.0028502317 -0.022372173 -0.05314862 -0.0650332 0.01645887 0.008043939 -0.06544676 -0.00021706204
0.0045861066 -0.01697435 -0.025870295 -0.00096651 0.021513805 -0.011984818 0.015689395 0.014437325
-0.070666485 -0.059831515 -0.039938338 0.043802932 0.046232935 0.011192234 0.08285056 0.02802531
0.05026867 -0.0121388575 0.016658058 -0.02786295 0.023345513 0.03977873 0.03623439 -0.060267556
0.046514906 -0.027187439 0.0045447075 -0.010897054 -0.027374906 0.0016124218 -0.045084435 -0.015392561
-0.061536767 -0.026455568 -0.0128587345 -0.044844788 0.07130967 -0.04007809 0.027448243 -0.022627164
-0.05046855 0.022926733 -0.017421968 -0.028592521 -0.08415508 -0.097375475 -0.10820622 -0.019121464
-0.07286446 -0.15999815 -0.06883406 -0.03263367 -0.002069542 -0.11783444 -0.07717813 0.031728126
0.17892042 0.11232954 0.01764258 0.07648114 0.15461835 0.12731728 -0.011243261 0.03602312
-0.013691327 -0.024145886 0.0683687 -0.038091376 0.055402573 0.0059244386 -0.03587465 -0.026888372
-0.058582637 0.045585953 -0.08299919 -0.0672996 -0.07111645 -0.09001789 0.061591733 -0.027758943
-0.072444975 -0.019837633 -0.0144567825 0.03138658 -0.10182266 -0.035907913 -0.03403469 0.017534342
-0.03056336 0.0033299874 -0.053210236 -0.015465872 -0.08570127 -0.05627128 -0.071674205 0.018574147
-0.14999984 -0.06495848 -0.0050535793 -0.00073860306 0.08423599 0.014130511 0.085280575 0.012371047
0.15153168 0.072445795 0.09948382 -0.0036218083 0.005946316 0.11907991 0.12829082 0.09924597
-0.038361877 0.075793974 -0.0059288335 0.06845646 0.0035374297 0.0785836 0.02757653 -0.032164898
-0.028289275 0.040688924 0.09036964 -0.04072488 0.00045974972 0.014363767 0.011503722 0.0033128215
-0.057901144 -0.007403012 -0.052314665 0.0058329436 -0.05802995 0.019406576 -0.046606377 0.0023760137
0.04424953 -0.026879277 0.032554757 -0.015414477 -0.06630132 -0.015165208 -0.033890925 0.03855733
00000000: 9957 24be 0b38 3bbd 7d0b cb3c 2bb0 acbc
00000010: 5789 0dbd 7dc5 b9bd 5bff b3bc 7f55 31bd
00000020: c535 c03c 04f4 81bd 3252 3ebd 603f 10bd
00000030: 3bff d7bd 4b43 403d 2ba7 753d 14cd 8bbd
00000040: 2bce abbc 9c0b 3c3d 549b 863d 2a8e 053e
00000050: dcc4 953d 1c42 d93c d634 7f3b ec78 383d
00000060: 2772 c63d 9af5 e33b 36bf e93c abaa 13bd
00000070: 8e45 543d a79f 0dbd 7de2 163d 1d40 683d
00000080: a18a b1bc 40fd 213a 8d8e a2bd 00fc b3bc
00000090: 11bf 6a3d 62fa 793c 201e 87bd c800 98bd
000000a0: ad7c c43d 0459 393c c4a0 33bd 328f 1ebe
000000b0: 8b68 21be 22c6 9f3d de48 9f3c fe8c e7bd
000000c0: d877 abbd b9c8 05be f0e5 a1bd 7df2 0ebc
000000d0: 6220 523c 2a8b f43c 78c8 e83c e381 153d
000000e0: 2829 a23c 621e f13c c388 4c3d c85a f8bb
000000f0: cd8b f13d ba42 b13d 9606 2f3d 4312 9abd
00000100: a973 10bd 4712 933d 257a 143d f1ab edbd
00000110: 49bb 0cbe f71f a8bd cf3a 963d 2965 cabd
00000120: f441 07be f6b1 b5bd 3225 f0bb c5e0 3fbd
00000130: d078 c8ba d9fd 143c 120b debd 9871 90bd
00000140: 3aa3 47bd 24a0 6bbc 6b71 17bd 3b46 c3bd
00000150: b4d3 1ebd 4af5 683d 457b 843a a23f c13d
00000160: 7e44 933c 250b c53d f513 8a3d ee44 ca3d
00000170: b9c6 533e 30a0 0f3e f20b 803d 224e fd3d
00000180: a48b 1f3e a3d6 823d 7d7a b9bd 9bed 95bd
00000190: 45c9 84bc 7834 ca3b 0161 06bd 62e6 a4bc
000001a0: f4ca 3abb d945 b7bc 5eb2 59bd 2030 85bd
000001b0: c1d4 863c baca 033c f308 86bd 269b 63b9
000001c0: 0d47 963b cb0d 8bbc f1ed d3bc 635d 7dba
000001d0: b83d b03c f85b 44bc 0c87 803c 888a 6c3c
000001e0: 97b9 90bd e411 75bd 6296 23bd b46a 333d
000001f0: bf5e 3d3d a25f 373c 8ead a93d 5695 e53c
00000200: 85e6 4d3d 0fe2 46bc 7b76 883c d740 e4bc
00000210: 173f bf3c 06ef 223d 836a 143d 1ddb 76bd
00000220: 6a86 3e3d 31b8 debc c5eb 943b 8f89 32bc
00000230: 5741 e0bc e657 d33a 75aa 38bd 1531 7cbc
00000240: fa0d 7cbd 59b9 d8bc 71ad 52bc 2baf 37bd
00000250: ce0a 923d ec28 24bd 23db e03c 9a5c b9bc
00000260: 1cb8 4ebd d8d0 bb3c 84b8 8ebc dd3a eabc
00000270: 8059 acbd cb6c c7bd 399b ddbd 9ea4 9cbc
00000280: f639 95bd 8ed6 23be dff8 8cbd e2aa 05bd
00000290: 27a1 07bb 2f53 f1bd 910f 9ebd 5af5 013d
000002a0: ea36 373e 080d e63d 2c87 903c 25a2 9c3d
000002b0: 4654 1e3e 765f 023e a835 38bc fb8c 133d
000002c0: 9651 60bc 98cd c5bc e404 8c3d b405 1cbd
000002d0: cfed 623d cb21 c23b 4cf1 12bd 0145 dcbc
000002e0: 59f4 6fbd 56b8 3a3d 7bfb a9bd 5fd4 89bd
000002f0: 80a5 91bd 4d5b b8bd 9d47 7c3d b966 e3bc
00000300: 085e 94bd 8882 a2bc 24dc 6cbc 378f 003d
00000310: 6688 d0bd 2d14 13bd f667 0bbd 2ea4 8f3c
00000320: 0360 fabc eb3b 5a3b faf2 59bd 9264 7dbc
00000330: 2684 afbd b77c 66bd edc9 92bd cf28 983c
00000340: 8f99 19be f408 85bd 7f98 a5bb d09e 41ba
00000350: eb83 ac3d a983 673c 95a7 ae3d efaf 4a3c
00000360: 1f2b 1b3e 765e 943d 2cbe cb3d dc5b 6dbb
00000370: 50d9 c23b 2be0 f33d ab5e 033e 7941 cb3d
00000380: 5821 1dbd df39 9b3d a946 c2bb e732 8c3d
00000390: 39d4 673b 70f0 a03d 2de8 e13c 57bf 03bd
000003a0: e9be e7bc 6ea9 263d b813 b93d 22cf 26bd
000003b0: 900a f139 0156 6b3c 1b7a 3c3c ec1b 593b
000003c0: c029 6dbd f794 f2bb e747 56bd 4722 bf3b
000003d0: d0b0 6dbd 8afa 9e3c 54e6 3ebd e5b6 1b3b
000003e0: ff3e 353d ee31 dcbc 2358 053d 018d 7cbc
000003f0: fdc8 87bd 7e77 78bc 36d1 0abd 4aee 1d3d

conv2.bias f4 [20]
-0.019443054 -0.03792715 -0.03563915 -0.05722377 -0.035326604 0.037708964 -0.013386335 -0.026882812
0.03714549 -0.070551425 0.0037724061 -0.0060096025 0.022344269 0.05246845 0.03222713 -0.0008736487
-0.0140628945 0.005389482 -0.07508107 0.0581707
00000000: 0a47 9fbc 8059 1bbd 5bfa 11bd 7963 6abd
00000010: a1b2 10bd b774 1a3d 5c52 5bbc 5839 dcbc
00000020: df25 183d 447d 90bd 793a 773b 33ec c4bb
00000030: 540b b73c 28e9 563d 9800 043d 9205 65ba
00000040: 0e68 66bc 409a b03b 1bc4 99bd 6644 6e3d

fc1.weight f4 [50, 320]
-0.07881306 -0.015099476 0.06968726 0.034200225 -0.024309104 2.2706292e-05 0.024227025 0.045146838
0.06271197 0.035312865 -0.050780296 -0.02129058 -0.08615164 -0.09745666 0.051871628 -0.0009323732
-0.053573973 0.063595556 0.03882212 -0.029054021 -0.06865012 0.009229445 -0.032360923 0.07604135
-0.09090936 0.02616694 0.017882846 -0.05398582 -0.052558888 0.079001255 -0.0147579415 0.060886875
-0.013309419 0.034856692 0.10440732 0.13494712 -0.044116907 -0.106831975 -0.023124274 0.028026963
-0.0450201 -0.06227515 -0.023228237 -0.069237895 -0.023091024 -0.08138171 -0.024901506 0.03239176
-0.024207667 -0.013908693 0.01937675 0.027651532 -0.008889046 -0.080937184 0.05510288 0.14075391
-0.0032726726 0.010796298 -0.032183737 -0.09932222 0.037774164 0.064377524 0.0030150313 -0.0037341581
-0.034914844 -0.009972699 -0.048775796 0.095425196 -0.0025176113 -0.080011554 0.029420145 0.028315518
0.11502454 0.019190952 -0.026578413 -0.02632805 0.059578642 0.0049679996 -0.015966319 -0.009948552
0.019762581 -0.054194923 0.018772304 0.0135040395 -0.034252003 -0.042060763 -0.0025685579 0.020593464
0.12465799 0.006923447 -0.0016792625 -0.045500744 0.0021736692 0.019445058 0.000662839 -0.010601704
0.054678768 -0.019829724 0.024934916 -0.12101075 0.16636051 0.0060994253 -0.004576875 -0.09225539
0.077287264 -0.080167 -0.008357086 -0.0003506983 -0.0015478157 0.017547173 -0.027055526 -0.06351617
-0.022843389 -0.018138468 0.0020200075 -0.034997854 -0.00942705 0.040415652 -0.038425513 -0.009791539
0.043974824 -0.00203375 -0.052876662 0.097567536 0.044805072 0.021625293 -0.03306253 0.023607615
0.026655853 -0.047318373 -0.027697409 0.03623503 -0.0063519436 -0.093735516 0.046706617 -0.012609135
-0.06535063 -0.054646675 0.117822275 0.03629708 0.038186982 0.040687405 0.021389524 0.027185027
0.04857732 -0.083359905 -0.045792233 -0.036590863 -0.031408068 -0.01206729 0.00037786074 0.14940281
-0.03286333 0.048146527 0.018794628 0.098042846 -0.06067804 -0.0913603 -0.01169377 0.073261
0.07841884 -0.05677846 -0.07541817 -0.05599182 0.10093467 -0.06208596 -0.016492104 0.025866007
0.007456634 -0.027567508 0.060791362 0.0910227 -0.07568502 0.03910894 -0.052099578 -0.020589355
0.066768095 -0.020598724 -0.04773068 0.011894569 0.07123029 -0.014111188 -0.028831422 -0.023717143
-0.010705942 -0.020632746 -0.018359631 -0.034154963 0.046261948 -0.016135747 -0.04008205 0.06764596
-0.011709954 -0.013493048 0.0759292 0.013760272 0.03281014 0.073507816 -0.07675509 -0.06884123
0.008452438 0.026770653 -0.023313677 -0.05511574 -0.009394599 -0.014742527 0.026790902 0.006482971
0.051402446 -0.013870906 -0.08263704 -0.0779932 -0.0003498161 -0.0012004091 0.010503015 0.08153652
-0.022983145 -0.028076384 0.10112823 0.015225189 -0.0010978825 0.035990372 -0.006844087 -0.05581826
-0.025053127 0.05054904 0.104498155 0.040402018 -0.040223822 0.00081530947 -0.010616103 0.103147276
-0.015025779 -0.06066927 -0.037258785 -0.0905773 -0.010396753 -0.08441605 0.013776862 0.041721135
0.025559891 0.0030855401 0.06149404 0.06337908 0.0057266406 -0.03293924 0.009483918 -0.12824944
0.068885714 -0.05209379 0.042101618 -0.031158844 -0.04298895 -0.0012389822 -0.03797554 0.09048613
00000000: be68 a1bd cb63 77bc 32b8 8e3d 8915 0c3d
00000010: e323 c7bc 6479 be37 c177 c63c e4eb 383d
00000020: 226f 803d 39a4 103d 00ff 4fbd 9569 aebc
00000030: 4570 b0bd 5b97 c7bd 5877 543d 826a 74ba
00000040: 6270 5bbd 633e 823d f103 1f3d b302 eebc
00000050: 6f98 8cbd 1937 173c e38c 04bd 91bb 9b3d
00000060: b02e babd 0d5c d63c 0c7f 923c 3c20 5dbd
00000070: fd47 57bd 69cb a13d 4bcb 71bc 8464 793d
00000080: c00f 5abc e4c5 0e3d 81d3 d53d 942f 0a3e
00000090: eeb3 34bd b9ca dabd 1e6f bdbc cd98 e53c
000000a0: ff66 38bd 3a14 7fbd 2549 bebc 99cc 8dbd
000000b0: 6329 bdbc 74ab a6bd 3efe cbbc 39ad 043d
000000c0: 284f c6bc 49e1 63bc fdbb 9e3c 7785 e23c
000000d0: 5ca3 11bc 65c2 a5bd 8fb3 613d cb21 103e
000000e0: 567a 56bb f5e2 303c 18d3 03bd 7369 cbbd
000000f0: 15b9 1a3d 5dd8 833d d597 453b c7b8 74bb
00000100: de02 0fbd 8864 23bc 21c9 47bd 496e c33d
00000110: 82fe 24bb 19dd a3bd 8402 f13c f2f5 e73c
00000120: fc91 eb3d 5836 9d3c f9ba d9bc ecad d7bc
00000130: bc08 743d 9aca a23b cccb 82bc 40ff 22bc
00000140: 23e5 a13c 7ffb 5dbd 60c8 993c 0c40 5d3c
00000150: d44b 0cbd e847 2cbd 4055 28bb a0b3 a83c
00000160: b04c ff3d 15de e23b b31a dcba fd5e 3abd
00000170: 1e74 0e3b 3e4b 9f3c 5fc2 2d3a c5b2 2dbc
00000180: d8f6 5f3d f271 a2bc 4f44 cc3c 7cd4 f7bd
00000190: 695a 2a3e b0dd c73b 9cf9 95bb 65f0 bcbd
000001a0: c948 9e3d 992e a4bd 29ec 08bc eedd b7b9
000001b0: 14e0 caba 17bf 8f3c 8da3 ddbc c414 82bd
000001c0: 0f22 bbbc 2097 94bc 1a62 043b e959 0fbd
000001d0: ea73 1abc e28a 253d 1264 1dbd b16c 20bc
000001e0: f21e 343d aa48 05bb 3395 58bd 7dd1 c73d
000001f0: 8685 373d 8727 b13c 936c 07bd c264 c13c
00000200: 605d da3c e9d0 41bd ade5 e2bc 2f6b 143d
00000210: f723 d0bb 68f8 bfbd 704f 3f3d 8c96 4ebc
00000220: 8dd6 85bd 31d5 5fbd ce4c f13d 3fac 143d
00000230: f469 1c3d d6a7 263d 1539 af3c 22b3 de3c
00000240: 03f9 463d 99b8 aabd a390 3bbd 4de0 15bd
00000250: bfa5 00bd e2b5 45bc 9c1b c639 0dfd 183e
00000260: b39b 06bd 4b35 453d 31f7 993c b0ca c83d
00000270: 8989 78bd 1c1b bbbd 3a97 3fbc dd09 963d
00000280: 0f9a a03d 8890 68bd d774 9abd ae57 65bd
00000290: d6b6 ce3d d94d 7ebd 731a 87bc f3e4 d33c
000002a0: c856 f43b 41d5 e1bc 5d00 793d 1c6a ba3d
000002b0: bf00 9bbd b230 203d 5e66 55bd 02ab a8bc
000002c0: b6bd 883d a8be a8bc 3f81 43bd 70e1 423c
000002d0: 30e1 913d 9d32 67bc e02f ecbc 744a c2bc
000002e0: fa67 2fbc 0106 a9bc f066 96bc 13e6 0bbd
000002f0: 2b7d 3d3d 1d2f 84bc 132d 24bd f789 8a3d
00000300: 1bdb 3fbc f211 5dbc c580 9b3d c472 613c
00000310: ed63 063d 448b 963d c631 9dbd a1fc 8cbd
00000320: 187c 0a3c 214e db3c 53fc bebc 0bc1 61bd
00000330: ceeb 19bc a48a 71bc 9878 db3c 1a6f d43b
00000340: 5f8b 523d cc42 63bc 9c3d a9bd e6ba 9fbd
00000350: 8667 b7b9 0c57 9dba d614 2c3c 9efc a63d
00000360: 2647 bcbc 7200 e6bc 511c cf3d 1273 793c
00000370: d3e6 8fba a46a 133d 5d44 e0bb b0a1 64bd
00000380: 373c cdbc 830c 4f3d 2103 d63d 967c 253d
00000390: bcc1 24bd 7eba 553a 2aef 2dbc e13e d33d
000003a0: af2e 76bc 5780 78bd ab9c 18bd 9780 b9bd
000003b0: 2557 2abc 52e2 acbd 59b8 613c c8e3 2a3d
000003c0: fa62 d13c c636 4a3b 2de1 7b3d e4cc 813d
000003d0: 8ba6 bb3b 4ceb 06bd 6f62 1b3c d253 03be
000003e0: f413 8d3d 4c60 55bd bf72 2c3d d540 ffbc
000003f0: 2e15 30bd 5865 a2ba 3d8c 1bbd cb50 b93d

fc1.bias f4 [50]
-0.0008155702 0.029336428 0.08761862 -0.0122917965 0.011678104 0.017022071 0.041334417 0.00812226
0.02823809 -0.0075532296 0.045890972 -0.021604925 0.009153909 0.0042932187 0.04918987 0.097740546
0.025506936 -3.905262e-05 0.09824764 0.0040977276 0.07656877 0.017678022 -0.01083802 0.04622193
0.028721316 0.035078228 0.041917097 -0.0032822047 -0.04058582 0.0517792 0.0703805 0.09585937
0.0656032 0.026326044 -0.045059025 0.09142759 0.069567166 0.042802658 0.037890445 0.063638866
-0.03963058 0.05277465 -0.014822146 0.0017709841 0.006426871 -0.023027547 0.0722692 0.060429636
-0.012381417 -0.00079637
00000000: fdcb 55ba f352 f03c 6471 b33d 8863 49bc
00000010: 8555 3f3c df71 8b3c 474e 293d 3a13 053c
00000020: 9153 e73c 1581 f7bb 2cf8 3b3d d0fc b0bc
00000030: 47fa 153c 21ae 8c3b 517b 493d 322c c83d
00000040: ecf3 d03c 6ecc 23b8 0f36 c93d 3b46 863b
00000050: 16d0 9c3d 80d1 903c f391 31bc 3553 3d3d
00000060: f748 eb3c 30ae 0f3d 43b1 2b3d 421a 57bb
00000070: 513d 26bd 6d16 543d a723 903d eb51 c43d
00000080: f85a 863d b7a9 d73c d08f 38bd 633e bb3d
00000090: 3b79 8e3d d751 2f3d 0333 1b3d 1855 823d
000000a0: ad53 22bd 3b2a 583d 96d8 72bc 5e20 e83a
000000b0: 8098 d23b 44a4 bcbc e001 943d 1185 773d
000000c0: 6ddb 4abc 7cc3 50ba

fc2.weight f4 [10, 50]
-0.20696637 0.18005238 -0.06419017 -0.19656709 0.22289747 -0.12006683 -0.2419433 -0.10178841
0.197958 -0.13998125 0.16967215 0.17383559 -0.022473296 0.20997332 -0.13033934 -0.24074794
-0.16075584 -0.28996375 -0.12453756 0.008205721 -0.21944697 0.20818257 0.05373677 0.24347086
0.1627095 -0.17272797 -0.12989767 0.14702284 0.22127166 0.1253322 -0.18021265 -0.025947817
-0.19624169 0.14926754 -0.13521121 -0.13503225 -0.010123226 -0.33846253 -0.02659665 0.23987138
0.35862058 0.19540118 -0.17447902 -0.21210349 0.05430311 0.065192536 -0.08144698 -0.21345118
0.18373564 -0.05999691 0.11715614 -0.22111484 0.22178666 -0.23364572 -0.11225797 -0.073266946
-0.27200556 0.22469088 -0.18542197 0.20318837 -0.19514903 -0.20226611 -0.17275207 -0.17115863
-0.14198856 0.18701647 -0.16261046 -0.26072946 0.2981483 0.07791077 0.21185976 -0.13498877
0.02482586 0.23347777 -0.13048573 0.2339675 0.21219008 0.1638055 -0.111848235 -0.17269732
-0.021544654 0.32300195 0.17225528 -0.092219576 -0.24306253 0.22635195 0.09189481 0.14698291
-0.10598273 0.19516696 -0.0966811 -0.25279737 -0.124607496 -0.06920515 -0.19328098 -0.18000722
-0.1964103 -0.025816943 -0.11186934 0.2564976 0.16475506 -0.060552858 -0.13264841 -0.057851292
-0.05985459 0.15596698 -0.14547257 -0.12216721 -0.12852073 -0.06312538 -0.16535944 -0.09441807
0.18321617 0.19783738 -0.057738382 -0.138721 0.014289965 -0.21674068 0.2650849 0.084318705
0.19162078 0.13300778 0.025190638 0.19400613 0.16475438 -0.21082772 0.21206784 0.13006432
0.042254627 -0.23141278 -0.21100947 -0.11282595 -0.17357966 0.08475961 0.18529615 -0.11133137
0.22695993 -0.3380881 0.25413382 0.1708811 -0.09320991 -0.010958991 0.19261917 -0.047551617
0.065461375 0.19321671 -0.15053508 0.1820444 0.13288333 0.24375243 0.14329825 0.20303757
-0.19062196 -0.13378145 0.05387875 0.24803106 0.042032003 0.22409849 -0.15090774 0.22911625
0.19236308 -0.2819356 0.12133978 0.20684724 -0.061974064 -0.053322848 -0.15991671 0.146162
-0.08572201 0.012663051 -0.16187653 -0.15354237 0.05178761 -0.13503708 -0.09599121 -0.05005667
0.21377143 -0.17120032 -0.050163772 0.044532552 0.19139686 -0.18145792 -0.160847 0.12910749
-0.110227995 -0.29702485 0.19413455 0.13061786 -0.08827763 -0.050074037 -0.11892053 -0.12595165
0.2014062 0.16709594 -0.1963902 0.21868035 -0.009630487 0.2133332 0.0134809725 -0.047186173
0.07562519 -0.28238514 -0.10655144 0.23475936 -0.14260052 -0.16290608 0.055910952 -0.075113796
0.22911048 -0.06451328 -0.090533525 -0.04072275 -0.23241091 -0.21091019 -0.10299453 -0.0741478
0.29882854 0.104438536 -0.021203607 -0.24036361 -0.091484606 0.15425883 -0.0964578 -0.133209
-0.21648705 0.24708012 -0.16444202 0.16768573 -0.14016385 0.15804699 0.18425159 0.27997878
0.22378546 -0.21766712 0.18691961 0.16782787 -0.29287854 0.02137299 0.27846098 -0.031043326
0.0052449666 -0.26822612 0.07937857 0.030579297 0.11028906 0.23336604 0.24655008 -0.19145612
-0.25984794 0.24590662 -0.2739089 0.19854102 0.22815853 -0.22832912 0.023782352 0.24579246
00000000: feee 53be a75f 383e 2376 83bd e248 49be
00000010: 3c3f 643e 99e5 f5bd fcbf 77be 7176 d0bd
00000020: 80b5 4a3e 3f57 0fbe 89be 2d3e f501 323e
00000030: eb19 b8bc 3f03 573e ad77 05be a186 76be
00000040: 2e9d 24be 2176 94be 8c0d ffbd 4a71 063c
00000050: b5b6 60be d02d 553e 161b 5c3d 6d50 793e
00000060: 529d 263e 9adf 30be e503 05be 288d 163e
00000070: 0a95 623e 1657 003e aa89 38be 8490 d4bc
00000080: 95f3 48be 97d9 183e cf74 0abe e545 0abe
00000090: e3db 25bc f64a adbe 38e1 d9bc d8a0 753e
000000a0: 1e9d b73e 3f17 483e a1aa 32be a831 59be
000000b0: f06c 5e3d aa83 853d adcd a6bd f292 5abe
000000c0: 3225 3c3e 52bf 75bd 8fef ef3d ee6b 62be
000000d0: 0b1c 633e d340 6fbe 82e7 e5bd fb0c 96bd
000000e0: 5044 8bbe 5e15 663e 42df 3dbe 9d10 503e
000000f0: 26d5 47be d91e 4fbe ebe5 30be 3544 2fbe
00000100: 7365 11be 3f81 3f3e 5b83 26be 557e 85be
00000110: e5a6 983e af8f 9f3d c4f1 583e 7f3a 0abe
00000120: 9a5f cb3c cc14 6f3e 0d9e 05be 2d95 6f3e
00000130: 5b48 593e a1bc 273e b010 e5bd 91d7 30be
00000140: 6a7e b0bc 8360 a53e b063 303e 9edd bcbd
00000150: 62e5 78be cec8 673e 5933 bc3d b082 163e
00000160: 790d d9bd d9d9 473e be00 c6bd a86e 81be
00000170: 3732 ffbd 6ebb 8dbd 73eb 45be d053 38be
00000180: c81f 49be 0e7e d3bc c11b e5bd a753 833e
00000190: 8db5 283e 4606 78bd fcd4 07be 7af5 6cbd
000001a0: 162a 75bd cfb5 1f3e c3f6 14be cd32 fabd
000001b0: f09a 03be e147 81bd fc53 29be 435e c1bd
000001c0: 059d 3b3e e295 4a3e 157f 6cbd e10c 0ebe
000001d0: 7520 6a3c 45f1 5dbe 35b9 873e 49af ac3d
000001e0: 3d38 443e 3133 083e 995c ce3c 8ba9 463e
000001f0: 5fb5 283e 39e3 57be 5028 593e 952f 053e
00000200: 3013 2d3d 79f7 6cbe de12 58be 4b11 e7bd
00000210: debe 31be 7296 ad3d 46be 3d3e b401 e4bd
00000220: 2f68 683e e219 adbe d41d 823e 75fb 2e3e
00000230: d6e4 bebd 578d 33bc f63d 453e 7cc5 42bd
00000240: 9d10 863d 9ada 453e de25 1abe d969 3a3e
00000250: 9112 083e 3d9a 793e c7bc 123e 15e9 4f3e
00000260: 6732 43be 01fe 08be f7af 5c3d dbfb 7d3e
00000270: c029 2c3d 137a 653e 8f87 1abe 739d 6a3e
00000280: d4fa 443e dd59 90be fe80 f83d c3cf 533e
00000290: 84d8 7dbd 0f69 5abd 35c1 23be 7eab 153e
000002a0: 058f afbd af78 4f3c f6c2 25be 363a 1dbe
000002b0: 3f1f 543d 2947 0abe 0a97 c4bd 3908 4dbd
000002c0: e6e6 5a3e 234f 2fbe 8778 4dbd c467 363d
000002d0: 8afd 433e 1bd0 39be 13b5 24be c134 043e
000002e0: 37bf e1bd a413 98be 35cb 463e b0c0 053e
000002f0: e7ca b4bd 6f1a 4dbd 9b8c f3bd 78f9 00be
00000300: 6d3d 4e3e 331b 2b3e 831a 49be beed 5f3e
00000310: 31c9 1dbc 0574 5a3e 4cdf 5c3c 4a46 41bd
00000320: 61e1 9a3d c994 90be a437 dabd c264 703e
00000330: df05 12be dad0 26be e202 653d 43d5 99bd
00000340: f09b 6a3e 8a1f 84bd a469 b9bd e6cc 26bd
00000350: 20fd 6dbe d7f8 57be ccee d2bd cdda 97bd
00000360: 0e00 993e dfe3 d53d 30b3 adbc e121 76be
00000370: 485c bbbd 07f6 1d3e ab8b c5bd f167 08be
00000380: c8ae 5dbe 9202 7d3e 7d63 28be cfb5 2b3e
00000390: 1d87 0fbe 12d7 213e 73ac 3c3e 6159 8f3e
000003a0: 0428 653e 21e4 5ebe db67 3f3e 12db 2b3e
000003b0: 2df4 95be 6916 af3c 7092 8e3e 934e febc
000003c0: f8dd ab3b ef54 89be 3b91 a23d 6f81 fa3c
000003d0: 3bdf e13d 82f7 6e3e a077 7c3e 130d 44be
000003e0: ca0a 85be f2ce 7b3e ca3d 8cbe 564e 4b3e
000003f0: 64a2 693e 1ccf 69be 35d3 c23c 05b1 7b3e

fc2.bias f4 [10]
-0.04982259 0.4596231 -0.11337429 -0.13398005 -0.09908461 0.019264441 -0.048774462 -0.09098706
0.08478295 -0.02234556
00000000: c612 4cbd b853 eb3e c830 e8bd 1132 09be
00000010: dfec cabd 76d0 9d3c bbc7 47bd 6c57 babd
00000020: afa2 ad3d 090e b7bc
