data/p1ch2/mnist.pth (torch_old, 88628 bytes, 8 tensors)

conv1.weight f4 [10, 1, 5, 5]
000000 ad b7 17 bd dd ae ab 3e 32 76 34 3e 1c 43 00 3e
       -0.0370404 0.33531848 0.17623213 0.125256
000010 16 64 62 3e 2b 30 b7 3e b0 56 25 3e 91 aa 47 3d
       0.22108492 0.35778937 0.1614635 0.04874665
000020 2c f6 5e be e1 91 4d be f3 e4 1d 3e 83 01 44 3e
       -0.21773595 -0.2007518 0.15419368 0.19141202
000030 26 fc ca 3c ee 0c a9 bd c4 c5 1e bc bc 13 96 3e
       0.024778437 -0.08254419 -0.009690706 0.2931193
000040 75 50 e4 bb f2 fc 06 be dc 67 27 be 2e 94 81 be
       -0.006967599 -0.13182428 -0.16348213 -0.25308365
000050 91 78 2d 3e 98 57 a4 3d 00 59 d7 3d 0f 2a 84 bd
       0.16940524 0.0802452 0.10515022 -0.064533345
000060 c0 0e 29 be 66 0e df bd 48 86 d6 3d d9 4d 76 be
       -0.16509533 -0.10891418 0.10474831 -0.24053134
000070 cd 22 91 be 06 26 17 be 86 3a be 3d ec 3a 9a 3d
       -0.28346863 -0.14760599 0.09288506 0.0753077
000080 0b 58 56 3e 98 1d 32 bc 2c 68 87 3e 20 76 8e 3d
       0.20932023 -0.0108713135 0.26446664 0.06956124
000090 fb a5 51 3e 9a 17 00 3f 05 76 ad 3e 4e 64 85 3e
       0.20473473 0.50036013 0.33879104 0.2605309
0000a0 2d e3 72 be fa 74 4a 3d 15 2c 6e 3d dc fb c7 3d
       -0.23719473 0.049427964 0.05814751 0.09764835
0000b0 4a 8b a9 3d 16 e4 b8 be cc 77 d2 be 22 75 01 bf
       0.082785204 -0.36111516 -0.41107023 -0.50569355
0000c0 b2 17 c1 be 92 38 61 be 26 b2 0b 3e 7f d0 3f be
       -0.3771339 -0.21994236 0.13642177 -0.18731879
0000d0 54 82 98 be c7 4b d3 be 11 ca af be 71 84 58 3e
       -0.29786932 -0.4126875 -0.34333852 0.21144272
0000e0 88 44 a6 3c f6 b6 85 bc e8 4a bd be b8 21 dd be
       0.02029635 -0.016322594 -0.3697121 -0.43189788
0000f0 b2 f3 13 3e 50 9d d0 3e 30 e6 9d 3e 1e c9 89 3e
       0.14448431 0.4074502 0.30839682 0.26911253
000100 1a 8c cf bd bc 94 13 3e 77 65 f9 3e 09 1d 04 3f
       -0.10134144 0.14412206 0.48710224 0.51606804
000110 ba a7 23 3e c4 ff d3 3d df 09 96 be 33 3b 91 be
       0.15981951 0.10351518 -0.29304406 -0.28365478
000120 ed 94 53 3d 02 5a a1 3e 84 70 68 3e 0d 91 69 be
       0.0516557 0.31513983 0.22699171 -0.22809239
000130 33 c3 5a 3d 40 a5 e0 3b 6e b5 48 3e 57 8f aa bd
       0.053408813 0.006855637 0.1960046 -0.08328121
000140 ed ec 9a be 5f 49 85 be c3 19 1a bc 27 45 af 3e
       -0.30258885 -0.2603254 -0.009405556 0.34232447
000150 18 72 f6 3d 22 0a ae bd 38 62 91 3e ef 51 dd 3e
       0.120334804 -0.084980264 0.28395247 0.43226573
000160 f2 dd 6e 3e 8e 6e 6e 3d c0 1f 24 3e 59 d6 9f 3e
       0.23326853 0.058210902 0.16027737 0.31218222
000170 90 6e 34 3e 3f 1d 44 bd ec fe 95 bd f1 36 aa 3d
       0.17620301 -0.047879454 -0.07324013 0.083112605
000180 99 f1 7a be ac 90 a3 be fc 6d 7f be 90 17 d1 be
       -0.24506225 -0.31946313 -0.249443 -0.4083829
000190 a8 12 4e 3e 0b 09 5e bc 73 87 ce bd 89 59 37 bd
       0.20124304 -0.013551961 -0.10084429 -0.04476312
0001a0 e7 a1 f8 3d 71 f7 d3 bc 41 1c 04 be 78 4a 42 be
       0.121402554 -0.025874825 -0.12901403 -0.1897372
0001b0 60 53 31 be 02 d4 6c be 6d 7e dd bd 87 4f 2e be
       -0.17316961 -0.2312775 -0.108151294 -0.17022525
0001c0 95 d6 81 be 79 5f 53 be df b5 99 bc 78 20 fd bd
       -0.25359026 -0.20641889 -0.01876348 -0.123597085
0001d0 8f 86 2e be d2 9a 02 3e 6e 30 0f bd 5b 1c 03 be
       -0.17043518 0.12754372 -0.034958296 -0.12803786
0001e0 cb 98 1e be c7 67 4a be 4c 89 40 3e d8 e6 50 3e
       -0.15487973 -0.1976615 0.18802375 0.2040056
0001f0 be b0 d2 3d 18 8e a9 3d 25 e9 22 3d 52 ad 95 3e
       0.10287617 0.08279055 0.039773125 0.29233795
000200 21 71 cc 3e 1f 05 4e 3e ba d5 7f bc 2a a1 28 be
       0.3993006 0.20119141 -0.015614921 -0.16467729
000210 a1 11 62 bd 97 14 08 3e cc 42 70 3e 3a b2 0e bd
       -0.055192593 0.13289104 0.23462981 -0.03483794
000220 d2 17 1d be 7e df 9d bd f6 a9 7a 3e 29 43 8c 3e
       -0.15341118 -0.077086434 0.24478897 0.2739499
000230 c3 2e a4 be 5a b0 57 be e0 66 2f be f3 72 67 3e
       -0.32066926 -0.21063367 -0.17129087 0.22602443
000240 9e f0 b5 3e c9 24 7b be 25 0a 96 bd d5 f4 68 bd
       0.3553514 -0.24525751 -0.07326154 -0.056874115
000250 ed b4 0d 3e a1 38 86 3e 2f 1a 7d be ad c3 b5 be
       0.13838549 0.2621508 -0.2471702 -0.3550085
000260 f9 2f 98 be f4 bd af be 4b 2a 82 bd 35 d8 ba be
       -0.297241 -0.3432461 -0.06355723 -0.36493078
000270 41 d2 0f be 3f f6 46 be ae d3 62 3e b9 34 92 3e
       -0.14045049 -0.19429873 0.22151062 0.2855585
000280 40 fb ae be a3 1e 27 be ec cf f0 3b 22 7f 6d 3e
       -0.34176064 -0.1632028 0.007349005 0.23193029
000290 0c d3 56 3e cd f7 a5 be 00 7e b4 3d 5d 4a 82 3e
       0.20978945 -0.3241562 0.08813095 0.2544736
0002a0 0f 80 ba 3e 8b 7a 83 3b 23 65 9d be 0b f4 ea bd
       0.36425826 0.004012411 -0.30741224 -0.11472329
0002b0 40 fe 95 3e bd 6b 8c 3e da 41 8b bb 42 95 3e bc
       0.2929554 0.27425948 -0.0042497935 -0.0116322655
0002c0 fb 30 b1 bd c9 6b 86 3d 28 48 2f be 5a 65 c6 bd
       -0.086519204 0.06563527 -0.17117369 -0.096873
0002d0 bf db c3 bd 03 c4 8e be 84 1e e0 be b6 28 ba bc
       -0.095633976 -0.2788392 -0.43773282 -0.02272449
0002e0 2b 28 5c be a6 43 5b 3e ab 0e ee bd bc 1f 65 be
       -0.21499698 0.21412525 -0.116238914 -0.22375387
0002f0 e7 00 3a be 43 f2 f7 bd 10 7a 8f bd f5 1a cd 3e
       -0.18164407 -0.12106755 -0.070057034 0.4005963
000300 2a b3 7f 3e ca 12 66 3b 92 56 d9 bd 75 69 93 3d
       0.2497069 0.0035106414 -0.10612215 0.07197849
000310 38 36 8c 3c e5 2d c9 3e 60 2a bd 3e 41 f3 b4 3e
       0.017115697 0.39292827 0.36946392 0.35341838
000320 8b 63 59 bc 2e 17 52 be ca 7e 54 be 43 99 86 be
       -0.013268362 -0.20516655 -0.20751491 -0.26288804
000330 c6 be 92 3d d1 7e 13 3e ef 6e 50 be c0 da 36 be
       0.071652934 0.14403845 -0.20354818 -0.17856884
000340 ec 7d 8e 3d 58 60 92 3e c6 f9 00 3e 30 57 76 3d
       0.069576114 0.2858913 0.12595281 0.060141742
000350 64 73 51 3e ea 1b bb 3e 15 78 7c 3e a3 95 10 3c
       0.20454174 0.36544734 0.24655183 0.008824739
000360 6d 02 0c bd b0 3a 8a 3e 9c 33 68 3e 99 92 3b 3e
       -0.034182 0.269979 0.22675937 0.18317641
000370 32 21 1b 3e 1b e9 14 3e 94 a1 92 bc f8 52 98 3d
       0.15149382 0.14542048 -0.017899312 0.074377
000380 2c ae 32 3e 71 52 f8 bd d7 bb 2e be d1 9c 83 be
       0.17449254 -0.121250995 -0.17063843 -0.2570558
000390 13 70 2c 3e 70 6c be bd c3 80 87 be 0b 41 93 be
       0.16839628 -0.092980266 -0.26465425 -0.2876056
0003a0 83 d0 90 3d 71 27 6a 3d db 0c 60 3e d2 48 2b 3c
       0.070710205 0.05716652 0.21879904 0.010454373
0003b0 d6 18 81 be 9e e2 43 be 38 4d 70 3d 98 33 89 3e
       -0.2521426 -0.19129416 0.05866739 0.26797175
0003c0 7d 1b 31 3c 6e e8 92 be f3 94 d9 3d ec 49 0e 3d
       0.010809776 -0.28692955 0.10624113 0.034738466
0003d0 0a 1e b2 3e 4d 7f 0b be ae b4 be 3d 73 b5 17 be
       0.34788543 -0.1362278 0.09311806 -0.14815311
0003e0 67 ab 27 3e 39 da 91 bc
       0.16373979 -0.017804252

conv1.bias f4 [10]
000000 03 20 93 bd f9 ba ab bd 79 14 44 be 3a ed e7 bb
       -0.0718384 -0.083852716 -0.19148435 -0.00707784
000010 96 12 f6 3d 1e 94 65 be a5 e7 a6 bd 45 e2 aa bd
       0.12015264 -0.22419783 -0.081496514 -0.08343939
000020 73 ce 2a 3d 8b f4 43 3d
       0.04170079 0.047840636

conv2.weight f4 [20, 10, 5, 5]
000000 68 9a e9 bd c9 51 89 bc 8c a9 35 3d 38 24 13 3d
       -0.11406404 -0.016762631 0.044351146 0.035923213
000010 d4 61 ad 3c a7 b1 97 bd 72 85 21 3c 98 75 18 ba
       0.021164812 -0.07406931 0.009858476 -0.00058158627
000020 12 96 62 3b e7 92 ad bd 70 d6 d8 bc 4e de 33 bc
       0.0034574312 -0.08475285 -0.02646944 -0.010978295
000030 a0 57 f8 bd dc de e1 3b 98 0f 9f 3d 34 0f 61 bd
       -0.12126088 0.006893022 0.07766646 -0.05494614
000040 57 15 53 bd d4 f5 52 bc 3e 54 88 3d dd 3a e6 3d
       -0.051534023 -0.012875993 0.06656693 0.11241696
000050 48 51 b7 3d e4 75 b8 3c aa f9 0b 3d 19 2c c7 3d
       0.0895105 0.022517152 0.034173645 0.09725208
000060 9b d0 0f 3e 38 21 03 3c 5d 37 6c 3d 20 85 50 bc
       0.1404442 0.008003525 0.057669986 -0.012727052
000070 38 e0 38 3d f5 5a 1a bd e8 77 77 3d 6a be a0 3d
       0.045135707 -0.0376844 0.060417086 0.078488186
000080 4f 9a f7 bb eb 75 8a 3c af 8d 74 bd 6a 64 80 bd
       -0.007556237 0.01690193 -0.059705433 -0.062691525
000090 4a e8 8b 3c e6 b5 76 bc c9 0c a1 bd c5 16 bd bd
       0.017078537 -0.015058016 -0.07863767 -0.092328586
0000a0 ce 67 88 3c 8a 2c 9e bd 19 20 9c bd 76 7e 1c be
       0.01665106 -0.07723339 -0.0762331 -0.15282616
0000b0 f0 4a 1e be a3 a8 21 3d 23 af b6 bc 02 6f 19 be
       -0.15458274 0.039467465 -0.022300309 -0.14983752
0000c0 ab d8 d8 bd 9e 98 30 be 32 61 a7 bd 85 6b ef bb
       -0.10588201 -0.17245719 -0.081728354 -0.0073065185
0000d0 e9 75 62 bd 91 b2 77 bd 0e a8 c4 bd 4b 49 81 3d
       -0.05528823 -0.06047303 -0.096023664 0.06312808
0000e0 e5 8a 75 3c 3b 1f 4a 3d 62 ec 94 3d 74 4a e4 3c
       0.014986728 0.04934619 0.07271649 0.027867533
0000f0 3d 61 0f 3e 0d 5d a8 3d 71 c4 8c 3d 2d 3f 60 bd
       0.14001937 0.08220873 0.06873406 -0.05474775
000100 71 06 25 bd 2f 25 13 3d ae a3 b4 3d 1f 13 b9 bd
       -0.040289346 0.035924133 0.08820282 -0.0903685
000110 40 13 10 be 37 56 ee bd 42 57 a7 3d d4 68 9a bd
       -0.14069843 -0.11637538 0.0817094 -0.07539526
000120 d0 2d 0d be bc 4a b4 bd b5 d5 f8 bc 0d f7 57 bd
       -0.13787007 -0.08803317 -0.030375341 -0.05272584
000130 05 2e 13 3c 7c 07 b4 3d d2 9a 85 bd 5c 9d 95 bd
       0.00898314 0.0879049 -0.0652367 -0.073054045
000140 7c 56 94 bd b4 6e 17 3b 6a 1d 2b bd 15 5a e3 bd
       -0.07243058 0.0023106756 -0.0417761 -0.11101166
000150 f9 dd 1e bd 8a 57 1b 3d 58 e9 52 bd ee 00 7f bc
       -0.03878591 0.03792528 -0.051492065 -0.0155641865
000160 3c df 30 bd d0 f7 01 3d de 37 9a 3d 74 6b b5 3c
       -0.043181643 0.031730473 0.07530187 0.022145964
000170 8e f6 29 3e b6 f0 10 3e 82 85 cc 3d 7a 1b 18 3e
       0.1659796 0.14154324 0.09986402 0.14854231
000180 58 f9 4c 3e 28 4c d6 3d 70 bd 80 bd 2f a4 63 bd
       0.20016992 0.104637444 -0.06286132 -0.0555765
000190 4d 4b 82 bc 1e b8 fc 3c 84 11 8c ba 68 cd 9c 3c
       -0.015905047 0.030849513 -0.0010686372 0.019140914
0001a0 66 8f 75 3b e1 a8 a2 bc 46 b5 5f bd a0 5d 8d bd
       0.0037469505 -0.019855918 -0.054616235 -0.06902623
0001b0 f0 40 e1 3c 8e 66 93 bc b2 1e 68 bd c7 4e 4a bc
       0.027496785 -0.017993238 -0.0566699 -0.012347884
0001c0 39 2a 9f bc 16 15 24 bd fb 1c 29 bc fc 70 a5 bc
       -0.019429313 -0.04005917 -0.010321851 -0.020195477
0001d0 f4 d0 5d 3c d6 94 a6 bb 62 1f ab 3c 32 91 22 3c
       0.013538588 -0.0050836606 0.020888988 0.009922313
0001e0 4b c1 89 bd d8 1c f9 bc 89 d0 0a bd 22 86 04 3d
       -0.06726321 -0.030409262 -0.03389028 0.03235448
0001f0 02 85 42 3d ad ab b9 bc 99 96 33 3c f6 8d 49 bd
       0.047490127 -0.02266487 0.010961198 -0.04920765
000200 98 d7 1e 3d 45 9f 5a 3d 4d b6 1d 3d dd 76 cf bc
       0.038779825 0.053374548 0.038503934 -0.025325233
000210 b6 c7 97 3c c4 c4 53 bc 84 bf 1f 3c 8b 92 1d bd
       0.018527847 -0.012925331 0.009750251 -0.038469832
000220 fb 7c 8e 3d 9c 67 af 3c 18 19 3e 3d aa 41 86 3c
       0.06957432 0.02141171 0.04641065 0.016388733
000230 1a f0 02 bd 0d f8 29 3d 1a 8c a2 bc ed a2 b4 3c
       -0.03196726 0.041496325 -0.019842196 0.022050345
000240 c6 35 85 bd be be 1f ba 17 f4 c7 3b 4a 91 49 bd
       -0.06504397 -0.00060937915 0.006102096 -0.049210824
000250 1d 20 66 3d 5b 31 9e bd fc 48 ff 3c 8e 68 8a 3c
       0.05618297 -0.077242576 0.031162731 0.016895559
000260 8a 49 92 b9 fa 8c 17 3d 84 63 c8 bc 40 df 28 bd
       -0.0002790208 0.03699968 -0.024461515 -0.041228533
000270 c7 3f 66 bd 33 f7 53 bd d9 9d c2 bd 91 19 79 bd
       -0.056213167 -0.05174942 -0.09502763 -0.060815398
000280 e5 0e ab bd 70 a0 1e be 3e 38 7c bd e2 3c 21 bd
       -0.0835245 -0.1549089 -0.061577074 -0.039364703
000290 8d 37 19 bc 25 48 a1 bd 2e f1 ad bd 08 b1 aa bb
       -0.009351623 -0.078750886 -0.08493267 -0.005209092
0002a0 11 7e 0a 3e d5 d7 1c 3e 91 1b c4 3c bf a4 3f 3d
       0.13524653 0.15316708 0.023938926 0.046787973
0002b0 86 27 0f 3e 2f 37 32 3e 54 15 05 3d f8 a6 21 3d
       0.1397992 0.17403863 0.032491043 0.039465874
0002c0 92 2c 85 3a fe d0 b5 3c 12 1b 9a 3d 58 75 96 bd
       0.0010160378 0.022194382 0.075246945 -0.073466
0002d0 e5 eb 8b 3d f2 84 55 3d ff 43 ab 3c 62 3f 1a 3d
       0.06832103 0.05212874 0.020906447 0.037658103
0002e0 df a1 ca 3b e7 0f 84 3d 34 af a3 bd 2c 9b 43 bd
       0.0061838473 0.06448346 -0.07992402 -0.047755405
0002f0 a2 d4 6d bd bb 04 d0 bd 42 b9 ef ba 1a 1d 62 bd
       -0.05806411 -0.10157152 -0.0018289464 -0.055203535
000300 cb 95 de bd c4 4a f7 bc 96 f8 17 bd af 75 24 3d
       -0.108684145 -0.030187018 -0.037102304 0.040151294
000310 37 69 db bd 93 3a 62 bd 33 c0 72 bc 10 18 ef 3c
       -0.107134275 -0.055231642 -0.014816332 0.029186279
000320 5e cc 8e bd 78 71 12 3d 59 ad cb bb 5d ea 83 bc
       -0.06972574 0.035752743 -0.006215733 -0.016102964
000330 b1 b7 98 bd 69 c2 75 bd 74 84 90 bd fc e0 b9 3c
       -0.07456911 -0.059999857 -0.070565134 0.022690289
000340 17 58 c8 bd 38 01 5b bd a6 18 ce bc 12 11 8f bd
       -0.09782427 -0.05346796 -0.025158238 -0.06985678
000350 09 ef 32 3c 35 bc 4f bd 30 d5 bb 3d dc f6 27 bc
       0.010921248 -0.050716598 0.09171522 -0.010251727
000360 a9 f7 ba 3d 05 25 41 3d e1 06 e1 3d e3 74 9b bc
       0.09129269 0.047154445 0.1098764 -0.018976634
000370 0a ec 75 3d fd c6 38 3e 1a 99 09 3e d3 fb fd 3d
       0.060039558 0.18044658 0.1343731 0.12401547
000380 0c ee 58 bc 43 a8 6b 3d e3 c0 be bc 91 95 15 3d
       -0.013240349 0.057533514 -0.023285335 0.03651959
000390 56 53 91 bc 77 85 9e 3d a7 1b 0e 3d a0 e7 93 bc
       -0.017739933 0.077403 0.03469434 -0.018054783
0003a0 87 65 e4 bc 9f 29 6a bc 51 96 33 3d 95 ff 28 bd
       -0.027880443 -0.01429215 0.043844525 -0.041259367
0003b0 b4 51 17 bc 72 33 82 3c 82 e9 98 bc 72 a0 ca ba
       -0.009235788 0.015893672 -0.018666033 -0.0015459193
0003c0 60 2d 88 bd 83 b3 04 3c 50 15 06 bd a8 1a 86 3c
       -0.066492796 0.00809944 -0.03273517 0.016370133
0003d0 9e 3b 10 bd 77 57 0f 3d 41 2f 21 bd ac a7 a3 3c
       -0.035213105 0.034995522 -0.039351705 0.019977413
0003e0 5b ba 92 3d 45 21 06 bd d5 4e 3e 3d 0e db dc 3b
       0.07164451 -0.032746572 0.0464619 0.0067399805
0003f0 5a 1e 8e bc 3d 8c ae bc af 67 fb bd c4 d2 ac 3d
       -0.017348457 -0.021307105 -0.122756355 0.08438638

conv2.bias f4 [20]
000000 7f 8b 95 bc 18 3d e8 bc f4 5f 26 bd 02 a2 54 bd
       -0.018254993 -0.028349444 -0.04061885 -0.051912315
000010 50 ff 25 bd 5a 05 e5 3c 32 51 c9 bc fe cf bd bc
       -0.040526688 0.027956653 -0.02457485 -0.023170467
000020 7b 33 0e 3d 27 08 8e bd f9 c5 59 3b 0b dc 2f bc
       0.034717064 -0.06935149 0.0033229573 -0.010733615
000030 c2 d7 39 3d 53 33 18 3d 1d 26 11 3d c6 09 04 3c
       0.04537178 0.03715832 0.03543674 0.008058971
000040 ff 87 6d bc 15 25 72 3a 86 0e 8a bd 4e a3 69 3d
       -0.014497756 0.0009237093 -0.067410514 0.057040505

fc1.weight f4 [50, 320]
000000 0c 26 fe bd 86 13 2e bb 7f bd 03 3e 30 4b 31 3d
       -0.124096006 -0.002656193 0.12865256 0.043284595
000010 4a 4f a2 bc f5 78 89 bd 6b e6 d5 bc 8d 7a 8e 3c
       -0.019813199 -0.06712524 -0.026110848 0.017392421
000020 cd e9 db 3c e3 74 6e 3c c3 44 48 bd 07 90 4f 3c
       0.026844883 0.014554235 -0.0488937 0.012668616
000030 ae f3 3e bd 19 63 5c bd 5e de 60 3d 05 31 5f bc
       -0.04661911 -0.053805444 0.054899566 -0.013622527
000040 d7 20 fe bc 8c 24 d5 3c 4b 1b 48 3d 10 fe 33 bc
       -0.031021519 0.026018403 0.048854154 -0.010985866
000050 16 c3 63 bd 82 22 02 bd 2b 2e e4 3c d3 c4 ed 3c
       -0.05560597 -0.03177119 0.027854046 0.029024517
000060 47 d0 8e bd 22 ee 91 3d b4 00 e3 3c fe 2e bc bc
       -0.069733195 0.07125498 0.027710296 -0.022971626
000070 df 0d 07 3a d5 27 87 3d 1d 34 0c bd 26 13 d0 3c
       0.0005151908 0.06599394 -0.034229387 0.025399756
000080 1c e8 80 bb 60 9a a0 3d 67 23 b5 3d f5 4e ee 3d
       -0.0039339196 0.07841945 0.08844643 0.116361536
000090 a4 79 10 bc 28 d3 82 bd 3f c0 89 bd cf 70 89 bd
       -0.008818064 -0.06387931 -0.06726121 -0.0671097
0000a0 d8 ad 9f bb dd 00 17 bd 78 06 00 bd 72 b4 20 bd
       -0.0048730187 -0.036866058 -0.03125617 -0.039234586
0000b0 6a 4a 03 bc 51 03 07 bd 3b 82 29 3d 50 b3 60 3d
       -0.008013347 -0.032962147 0.041383963 0.054858506
0000c0 cf 95 ae bd 0d c9 3a bd 7d 7e 42 3d bd 20 29 3d
       -0.085246675 -0.045601893 0.04748391 0.041290987
0000d0 c6 a8 69 bd 44 39 fd bd 0e 34 12 3d c8 10 d1 3d
       -0.05704572 -0.12364438 0.035694174 0.10208279
0000e0 a2 a8 93 bc 50 2f 06 3b 59 74 f1 bc be 14 c5 bd
       -0.018024746 0.0020474978 -0.029474424 -0.09623097
0000f0 f7 5c 2e b8 b6 d9 1c 3d 6f cc a5 3c 67 55 90 3d
       -4.1571413e-05 0.038293563 0.020239083 0.07047539
000100 33 1c 07 bd 6d 03 33 bd a7 08 fd bc 57 42 d3 3d
       -0.032985877 -0.04370444 -0.030887915 0.10315388
000110 ac 8a e4 3c d6 a1 66 bd e7 d5 1e 3d 86 0a 07 bc
       0.027898155 -0.056306683 0.038778212 -0.008242255
000120 e5 9c a2 3d 13 19 4c 3b 22 be a4 3c d4 d3 66 3c
       0.079400815 0.0031142875 0.020110194 0.01408859
000130 7d 76 ae 3b 20 ee b9 ba ca ac 07 3b ec fa 09 3d
       0.0053241835 -0.0014185347 0.0020702356 0.033686563
000140 d9 e3 d3 bc e5 dc e7 bc 9f f3 43 3d bb cf ad 3b
       -0.025865482 -0.028303573 0.047839757 0.0053043044
000150 5c e4 4b bd a2 5c 9e bd fc 3b e9 3b 49 b7 f4 3c
       -0.049778327 -0.07732512 0.0071177464 0.029872553
000160 41 ec 4d 3d d3 3a 40 3d 4c 89 49 3c fb 35 3f bd
       0.050274137 0.0469311 0.0123008005 -0.04668234
000170 39 0f 13 3c d4 6d e8 3c f5 01 bd 3c 74 03 81 bc
       0.008975797 0.028372683 0.023072222 -0.015748717
000180 ee 35 24 3d 45 55 24 3c ca f3 86 3d d1 79 98 bd
       0.040090494 0.010030095 0.06589468 -0.0744511
000190 3f e9 2b 3e f8 fa 8e 3d 7b 1d 05 bd b4 7c ec bd
       0.16788195 0.06981462 -0.032498818 -0.11547223
0001a0 d5 37 9d 3d 56 df aa bd 4b 93 10 3d 8f f2 80 bd
       0.07676665 -0.08343379 0.03529672 -0.062962644
0001b0 8a 51 98 3b 81 d3 f9 3c 74 84 3a bd e8 60 8f bd
       0.004648392 0.03049636 -0.045536473 -0.07000905
0001c0 ab 88 02 3d c4 45 67 3c c4 7f 1d 3d b1 c7 11 bd
       0.031868618 0.0141157545 0.038451925 -0.03559083
0001d0 8a b0 9a bc f8 fe 0b bc da 38 4e bd 20 a7 53 3d
       -0.018883009 -0.008544676 -0.050347187 0.051673055
0001e0 03 b9 2f bd d7 9d ce bc 3d 4b 4b bd 7b fb 84 3d
       -0.04290105 -0.025221748 -0.0496323 0.064932786
0001f0 27 ef 40 3d a4 62 23 3c 02 03 36 bd 97 1e 8f bc
       0.047103073 0.009972248 -0.044436462 -0.017470641
000200 58 72 ee 3c f7 0d 25 bd 69 37 3e bd 89 60 fe 3c
       0.029107258 -0.04029652 -0.046439562 0.03105189
000210 ad ba 02 bd 65 9c c4 bd bc f3 b7 3d 95 32 18 3c
       -0.03191631 -0.096001424 0.089820355 0.009289403
000220 e3 d6 83 bd 41 e6 56 bd 2b da cc 3d e8 cc d1 bc
       -0.06437471 -0.05246568 0.1000255 -0.025610402
000230 fb 5a a8 3d 2c f7 4c 3d 68 aa 76 3b f8 b3 83 bc
       0.08220478 0.05004041 0.003763819 -0.016077027
000240 70 fe a1 3d 23 a0 9e bd 2d db ba bc 82 0d 37 bc
       0.07909858 -0.077453874 -0.02280959 -0.011172654
000250 e2 6a 6b 3b 42 f6 13 b9 08 95 81 3b 47 99 d5 3d
       0.0035921861 -0.0001411075 0.0039545335 0.10429626
000260 47 29 08 bd de af 40 3c 31 e1 a0 bb b3 3d 0b 3d
       -0.03324249 0.01176068 -0.0049096574 0.033994388
000270 bc 10 9a bd 9f ae 6e bd 3f d1 1d 3d 69 c8 30 3d
       -0.07522723 -0.058272 0.03852963 0.043159876
000280 f1 41 29 3d 75 ab 63 bd e6 d9 3b bd 3f 84 59 bd
       0.041322652 -0.055583436 -0.0458621 -0.053104635
000290 2a 6e b8 3d d0 2b 41 bd dd 71 38 bc 2a 82 88 3d
       0.09005387 -0.047160923 -0.011257616 0.06665452
0002a0 22 76 da 3b b8 0d f8 bb 93 f4 2d 3d e9 1f 49 3d
       0.0066669146 -0.007569995 0.042469572 0.049102698
0002b0 1f 34 9e bc 7a a0 1b 3d 81 3c 75 bd c1 94 27 bd
       -0.019311963 0.03799484 -0.059872154 -0.040913347
0002c0 7b d6 1e 3d 30 89 a8 bc 7b dd 4c 3c da 17 c3 3c
       0.038778763 -0.020573229 0.012503977 0.023815084
0002d0 da 15 cc 3c 08 74 63 3b 22 b0 22 bc 4c 81 4e 3c
       0.024912763 0.0034706611 -0.009929689 0.012604069
0002e0 5b 3d 13 bd 89 76 3d bd ee 54 69 bd 7c 35 80 bd
       -0.035947185 -0.046255622 -0.05696576 -0.06260201
0002f0 a4 32 ac 3c 9e ad 3e 3b c9 40 5d bd 41 2d 91 bb
       0.021020241 0.0029095183 -0.054016862 -0.0044304435
000300 74 46 2a bd d9 67 22 bd 0a e8 46 3d 79 1b 94 3c
       -0.041571096 -0.039649818 0.048561133 0.018079506
000310 06 de a7 bc 5b 46 92 3d a7 68 40 bd a8 e3 8d bd
       -0.020491611 0.071423255 -0.046974804 -0.069281876
000320 b6 1c bb 3c 5f 0a 64 3d 6b ef 42 bd ca b8 1b bd
       0.022840839 0.055673953 -0.047591608 -0.038018025
000330 4e af f0 3c 8c 14 de 3c 68 6b 07 3d c5 13 2e 3d
       0.029380467 0.027109407 0.033061415 0.042499322
000340 67 eb 1e 3d 81 f8 79 bc 46 23 4f bd 12 73 50 bd
       0.038798716 -0.015257002 -0.05057075 -0.05089099
000350 97 12 5d bd 0a 0e 25 3c c6 76 07 3d 5f 30 bd 3d
       -0.053972807 0.010074148 0.033072256 0.09237742
000360 58 41 45 bd 5a 52 1e bd a3 40 a3 3d df a1 20 bd
       -0.04815802 -0.038652755 0.07971313 -0.039216872
000370 33 de b1 bc b1 da 5d 3c 7b d5 1b 3d 3f 5a 1d bd
       -0.021712398 0.01354091 0.038045388 -0.038416144
000380 d4 68 1f bd 3e bb 97 3d 15 3a bc 3d 2d b4 34 3d
       -0.03891833 0.074087605 0.09190766 0.04411714
000390 cb 54 21 bd 88 7e 9e 3c cd dc 35 bd 5d 22 83 3d
       -0.039387506 0.019347444 -0.044400025 0.06403039
0003a0 8f 0d 9a 3c 94 95 30 bd 1a 9e c5 bc 32 80 9a bd
       0.018805293 -0.0431114 -0.02412324 -0.075439826
0003b0 e4 54 d0 3c 61 75 3d bd 4f 38 2a 3d ab 15 93 3d
       0.025431104 -0.04625452 0.041557606 0.07181867
0003c0 11 f0 7c 3d 6e 7a 87 bd 4c ab 93 3c f5 e9 9e 3d
       0.061752383 -0.066151485 0.018026017 0.077594675
0003d0 41 94 4c 3d 0a 43 ae bc 27 5b e7 3b ad 1b 13 be
       0.049946073 -0.021272201 0.0070604268 -0.14366026
0003e0 56 ea 96 3c 2a e7 e8 bd ce e6 b5 3c 34 42 06 bd
       0.018422287 -0.11372216 0.022204783 -0.03277798
0003f0 ee 36 c1 bc f5 cb 6b bd d2 95 12 bd b2 36 b3 3d
       -0.023585763 -0.057567555 -0.03578741 0.08750667

fc1.bias f4 [50]
000000 61 ee 31 3c 3c 07 b3 3c 6d c1 9b 3d ed 9a a8 bc
       0.010860057 0.021854036 0.076052524 -0.020581687
000010 57 ad 90 3c 3b fc c4 3c 4c 81 27 3d f1 61 07 3c
       0.01766078 0.024046054 0.04089479 0.008263097
000020 91 3c d4 3c 40 f4 b8 bc 19 4a 23 3d ad 67 b1 bc
       0.025907787 -0.022577405 0.039865587 -0.021655882
000030 01 b1 45 3c 66 7f 31 ba 7a dc 69 3d 2f 50 c7 3d
       0.012066127 -0.0006770998 0.05709503 0.09732091
000040 d7 d1 bf 3c dd 93 dc b9 37 4e e2 3d f1 65 c8 bb
       0.02341549 -0.00042071837 0.110500745 -0.006115668
000050 57 69 a8 3d ab ba 85 3c 14 6d 2c bc 0d 02 53 3d
       0.08223217 0.016324362 -0.010524053 0.051515628
000060 fb 36 e7 3c 80 23 14 3d cc 6e 4a 3d 58 fb c3 bc
       0.028224459 0.036166668 0.04942207 -0.023923561
000070 3b c2 fc bc 7d 88 30 3d 10 8a 7f 3d 98 f5 bd 3d
       -0.030854335 0.043098915 0.062387526 0.09275359
000080 8b fb 7a 3d 94 89 af 3c d7 51 5b bd 15 5a cc 3d
       0.061275046 0.021427907 -0.053544845 0.09978119
000090 36 8b 9c 3d d6 f6 eb 3c f3 28 26 3d 74 a5 87 3d
       0.0764374 0.028804224 0.040566396 0.066233546
0000a0 47 15 3e bd ce 30 32 3d 71 c8 9c bc f5 31 87 3b
       -0.04640701 0.043503575 -0.019138547 0.0041258284
0000b0 4d a8 8f ba e1 e3 a7 bc 8a 0e 89 3d 31 61 96 3d
       -0.0010960192 -0.020494403 0.06692226 0.073427565
0000c0 ee b7 9a bc 00 59 1f 3c
       -0.018886533 0.009725809

fc2.weight f4 [10, 50]
000000 b9 2e 6b be 5e e5 2e 3e 88 9b 0e 3c fc 3f 40 be
       -0.22967042 0.17079684 0.008704074 -0.18774408
000010 88 7f 6c 3e 77 05 c5 bd 0f 38 84 be 2e 0d 02 bd
       0.23095524 -0.09620183 -0.2582402 -0.03175085
000020 32 83 66 3e 37 52 2a be 6d 5f 66 3e 06 21 16 3e
       0.22510985 -0.16632925 0.2249734 0.14661035
000030 e9 ef e9 bc 2e 05 53 3e ea a4 3a be 99 e2 84 be
       -0.02855678 0.20607445 -0.18226972 -0.2595413
000040 30 37 20 be b7 f4 96 be 6b dc e1 bd fa 02 fc 3d
       -0.15646052 -0.29483578 -0.110283695 0.12305255
000050 31 35 4a be 18 f8 47 3e 34 c5 76 3d 12 67 6d 3e
       -0.19746853 0.19528234 0.06024666 0.2318385
000060 5e 2c 50 3e d3 22 4a be 5f 4b 12 be 12 3e 96 3d
       0.20329425 -0.19739847 -0.14286564 0.07336058
000070 a1 48 1d 3e df 81 42 3e 49 c0 4d be 4e 6d 8d 3b
       0.15359737 0.18994854 -0.20092882 0.0043160086
000080 ee 83 52 be c1 7c d1 3d bd 01 cd bd d9 b7 0b be
       -0.2055814 0.10228873 -0.10010097 -0.13644351
000090 1e f5 44 bd ba a9 98 be 23 60 4a bc 71 78 86 3e
       -0.048085324 -0.2981699 -0.012352022 0.26263765
0000a0 10 d8 b3 3e 13 85 36 3e 97 b7 8e bd 72 f8 56 be
       0.3512578 0.17824201 -0.06968611 -0.20993212
0000b0 d6 58 dd bc 8d 5f ac bc 9b 4f 04 be 52 f9 52 be
       -0.0270199 -0.021041656 -0.12920992 -0.2060292
0000c0 bb 4a 58 3e b6 57 04 bd 09 d3 37 3e e4 d2 50 be
       0.21122257 -0.03231021 0.17951597 -0.20392948
0000d0 dc 8c 5e 3e 48 14 79 be 6c 0c b7 bd a8 9f c5 bd
       0.21733421 -0.24324143 -0.08937916 -0.09649593
0000e0 b3 3e 82 be 69 fb 58 3e d5 a2 1e be 13 ff 3e bb
       -0.2543846 0.21189655 -0.15491803 -0.0029143735
0000f0 30 c5 5f be 22 43 5d be bb 97 f6 bd 19 62 0b be
       -0.21852565 -0.2160764 -0.12040659 -0.1361164
000100 da 96 18 be 53 61 59 3e e8 4a 22 be 96 1c 68 be
       -0.14901295 0.21228532 -0.15848887 -0.22667155
000110 f6 e0 a1 3e 6d 02 00 be 09 37 4c 3e 86 29 10 be
       0.31616944 -0.12500925 0.19942869 -0.1407834
000120 3a 2a 17 3c 97 8a 5b 3e c2 93 20 be 43 19 89 3e
       0.009226376 0.21439587 -0.15681365 0.26777086
000130 9d 67 5f 3e 0a bf f4 3a ca 48 3b bd dc e7 5e be
       0.21816869 0.0018672657 -0.045723714 -0.21768135
000140 0b 26 a7 bd bc 31 9c 3e f2 20 50 3e 09 31 19 3b
       -0.08161553 0.30506694 0.20325068 0.0023375174
000150 ec e1 56 be e8 e0 6e 3e 58 c7 10 3e ec 50 f5 3d
       -0.2098462 0.23327982 0.14138544 0.11978325
000160 c8 9d ce bc 70 eb 67 3e c8 92 c6 bd d9 80 65 be
       -0.02522172 0.22648406 -0.09695965 -0.22412433
000170 a1 5b 1e be a3 e1 89 bd 50 64 2b be 3c 5d 4d be
       -0.15464641 -0.0673249 -0.16737485 -0.20055097
000180 f1 04 4f be 24 7d 99 bd ed 4f b3 bd 5c 23 66 3e
       -0.20216729 -0.07494572 -0.08755479 0.22474426
000190 40 0f 8f 3d 25 d0 45 bd 62 68 ed bd 21 b9 c7 3d
       0.069853306 -0.048294205 -0.11592175 0.097521074
0001a0 6a 1e 0b be 77 f4 62 3d 10 58 5d be 40 4a e7 bd
       -0.13585821 0.05540892 -0.21615624 -0.11293459
0001b0 94 c4 82 bd e7 7b 06 bc 31 f7 04 be 02 97 0c be
       -0.063851506 -0.008208252 -0.12984921 -0.1372948
0001c0 35 60 2e 3e 38 9e 30 3e e9 ca 6f bd 91 35 33 be
       0.17028888 0.17247856 -0.05854312 -0.17500903
0001d0 f6 89 ed 3b 7f a9 74 be 86 58 94 3e 6d a3 d9 3d
       0.0072491122 -0.23892783 0.28973788 0.10626874
0001e0 2b e3 49 3e 63 26 20 3e 8d 23 1e 3c 42 fe 40 3e
       0.19715564 0.15639643 0.009652031 0.18846992
0001f0 22 64 1f 3e 53 8d 3a be 71 35 6a 3e c4 a5 68 3e
       0.15565541 -0.18217973 0.22871949 0.22719485
000200 0c 4d 19 3e e4 01 5f be 23 0b 6a be e2 c9 2f be
       0.14970797 -0.21778065 -0.22855811 -0.17166856
000210 03 b0 19 be ec b2 b9 3d 8c 63 01 3e 00 23 0d be
       -0.1500855 0.0906733 0.1263563 -0.13782883
000220 44 c7 5d 3e b9 49 b0 be 2a 99 56 3e 35 3f b3 3d
       0.21658045 -0.34431246 0.20956865 0.0875229
000230 8d f3 4c bd 08 2d c5 bd e1 1a 6d 3e 02 0e b0 3d
       -0.050036956 -0.0962773 0.23154785 0.08596422
000240 97 48 1c 3d b5 35 49 3e de 79 0e be 49 7d 01 3e
       0.038155165 0.19649394 -0.13913676 0.12645449
000250 81 6f 1d 3e 7f d9 64 3e 01 25 3b 3e 23 b8 54 3e
       0.15374567 0.22348593 0.18275835 0.20773368
000260 50 41 50 be ce bc 2f be 86 d7 10 3d 54 5d 99 3e
       -0.20337415 -0.17161867 0.03536179 0.29954016
000270 06 01 39 3d 67 5d 67 3e c2 ab da bd ce 53 fb 3d
       0.04516699 0.22594224 -0.106772915 0.12271844
000280 3e 68 ea 3d 89 3b 88 be e7 fa 0d 3e 69 a0 3c 3e
       0.11445664 -0.26607922 0.13865243 0.18420567
000290 8c 21 36 be 3b 8b d6 bd e9 5d 21 be cb 66 21 3e
       -0.17786235 -0.10475775 -0.1575848 0.15761869
0002a0 02 3f ac bd d6 0a 03 3d f5 38 4a be 80 81 1d be
       -0.08410455 0.031992756 -0.1974829 -0.15381432
0002b0 3d 06 9a 3d 70 bd d5 bd 55 fb d1 bd d8 1c 6f bd
       0.07520721 -0.10436523 -0.10253016 -0.058377117
0002c0 0a dc 4c 3e f6 52 65 3d 6a 9e 1d 3e e9 8d d3 bd
       0.20005813 0.05598732 0.15392461 -0.103298016
0002d0 05 7a 55 3e 78 c6 38 be 58 49 32 be 5e a1 04 3e
       0.20847328 -0.1804446 -0.17410791 0.12952182
0002e0 7e 93 28 be 02 e5 a0 be cf 4c 49 3e df a2 19 3e
       -0.16462514 -0.3142472 0.19658206 0.15003537
0002f0 24 36 90 bd 32 dc 99 bd 32 ff e7 bd b9 f3 38 be
       -0.070415765 -0.07512702 -0.113279715 -0.18061723
000300 67 d4 a3 3d 7a bb 29 3e e7 da 2c be 6b 3c 70 3e
       0.07999497 0.16575423 -0.1688038 0.23460548
000310 ac 95 a4 3d 03 08 4b 3e 55 b4 d6 bc 7f 96 34 bc
       0.0803636 0.19827275 -0.026209036 -0.011022209
000320 7e 1d 84 3d 01 3b 85 be 97 75 ef bd 74 a9 93 3e
       0.06450938 -0.2602158 -0.1169235 0.2884022
000330 bb 92 14 be 30 c3 21 be c2 c0 df 3d 92 15 c7 bd
       -0.14509098 -0.15797114 0.109254375 -0.09720911
000340 34 6a 7a 3e 7c bb 11 be 4a 61 ee bd 24 a3 27 3d
       0.24454576 -0.14231676 -0.1163965 0.040927067
000350 9d 73 8d be bd a6 69 be 8e 6d d5 bd 88 f2 2a bd
       -0.27627268 -0.22817512 -0.104212865 -0.041735202
000360 ca 43 83 3e d0 2f 08 3e b0 01 d2 bc f1 84 6b be
       0.25637656 0.13299489 -0.02563557 -0.22999932
000370 b9 e8 79 bd 4d 73 27 3e dc ba c4 bd 01 06 c9 bd
       -0.061012957 0.16352578 -0.09605953 -0.09815598
000380 51 23 6d be fd 5d 6b 3e 97 ce cc bd 13 68 94 3d
       -0.23158003 0.22985072 -0.100003414 0.07246413
000390 8b bd 23 be 36 52 4d 3e 54 62 3a 3e 70 61 90 3e
       -0.15990274 0.20050892 0.18201572 0.2819934
0003a0 f7 1c 77 3e 95 39 5a be 20 b3 3e 3e dc 3a 33 3e
       0.24132143 -0.21311028 0.18623018 0.17502922
0003b0 4e 07 98 be 7c 44 c5 3b 23 7a 7c 3e d1 e4 e3 bc
       -0.29693073 0.006020127 0.24655966 -0.02781907
0003c0 a8 bc f2 3c 33 20 6e be a9 bb 54 3e 7c 90 ca bd
       0.029630974 -0.2325447 0.20774712 -0.098908395
0003d0 b4 0c e4 3d 70 d8 89 3e f6 6b 56 3e 11 ad 0e be
       0.111352354 0.2692294 0.20939621 -0.13933207
0003e0 25 2d 4a be 03 9b 38 3e 33 4e 73 be 0c 22 48 3e
       -0.19743784 0.18027882 -0.237603 0.19544238
0003f0 90 ac 7a 3e 37 cd 32 be bf 4f cf 3d 7b f2 8a 3e
       0.2447989 -0.17461096 0.10122632 0.27138123

fc2.bias f4 [10]
000000 98 5a 3b bd 46 60 0b 3f 55 44 09 be 3e cb fe bd
       -0.045740694 0.54443777 -0.13404973 -0.12441109
000010 f3 a2 44 bd eb 32 18 bd a8 ea 2a bd 98 01 bb bd
       -0.048006963 -0.037157934 -0.041727692 -0.09131163
000020 7a 1e 15 bc e2 c3 f9 bb
       -0.009101504 -0.007622228
